MODEL_CHECKPOINT.3764827.critic_target.pt (torch_old, 22417 bytes, 8 tensors)

linear1.weight f4 [48, 26]
0.273051 -0.72717744 0.07007315 -0.04607276 0.11292846 -0.41816294 0.14378917 0.0990098
-0.08309397 -1.137037 0.052490078 0.02585623 -0.39090312 -0.47156963 0.04624048 -0.09078294
-0.30473512 -1.0510347 0.031166585 -0.25586012 -0.93601036 -0.7323734 -0.09848057 0.098335624
1.1149207 -0.35570058 -0.1831909 1.0060581 -0.13113132 -0.13836758 -0.31267303 0.05138892
0.09797376 0.058498226 -0.17067473 1.1358206 -0.16457044 0.36911517 0.35509676 0.07017732
0.057312675 0.22391884 -0.18252337 1.208207 -0.022922525 0.1935852 1.5773304 -0.22068526
-0.010613204 0.33050194 -0.24247977 -0.06144251 -0.07094519 0.7442901 0.23070759 -0.22583218
-0.73421526 0.49431172 0.20480673 -0.18134975 0.20011167 0.8768789 0.06461108 -0.006724309
-0.47961664 0.123839214 -0.06055298 -0.007881338 0.42937917 0.42691055 -0.12308816 -0.62405795
0.18068162 0.047993954 -0.10021898 -0.52213293 -0.1704098 -0.20098454 0.11978482 0.57737565
-0.07790962 -0.20952359 0.3883868 -0.21506512 -0.055268947 -0.12186655 0.058611706 0.60925204
-0.07948572 0.15263921 0.41585582 -0.40155023 0.014737687 -0.001623722 -0.3739475 0.37231
0.012078145 -0.13256769 0.65916556 -0.088366896 -0.020411782 -0.18677981 1.3441997 -0.8104483
-0.10108624 0.81344604 -0.1415215 -0.20379984 -0.30195144 0.21288641 0.13763867 0.010658679
-0.03149158 1.1649987 0.07910733 0.006725624 0.15374164 0.27851424 -0.120529294 -0.2498352
0.5071295 0.95839894 -0.04396023 0.8797225 1.0637549 0.30077535 -0.057990104 0.73336554
-0.29292977 0.23281223 -0.21215875 0.6547324 -0.139997 0.3284122 0.07087705 -0.4490925
0.13615322 0.30236673 0.023659125 0.8535647 0.06478137 -0.07945272 1.2901138 -0.045904916
-0.0937534 -0.23876539 -0.028398184 0.5450176 0.12474579 -0.11409932 3.6816895 0.1776046
-0.086502075 0.05872646 0.07152439 -0.07528156 0.15432847 -1.1215523 0.09315386 0.17385933
0.16156659 -0.70288926 -0.01852419 0.09358109 -0.0811972 -1.3752257 0.0867789 0.101169065
0.079015166 -0.18290728 0.15866266 -0.07259275 -0.13305773 -2.0702286 -0.0034923675 -0.26247266
0.20953362 0.47988358 0.14057292 -0.08073437 -1.4961724 0.6649617 0.35563618 -0.54547685
-0.09653109 -0.22742458 0.85303664 0.08085269 0.1556927 -0.12284397 -0.016217558 -0.64930797
-0.13453737 0.38867047 0.49729452 -0.12842815 -0.16954447 0.027747106 -0.21449202 -0.66814804
0.06307598 -0.114756614 0.38558847 -0.28938794 0.2667854 -0.06270684 1.7312162 -0.65900445
-0.1240856 -0.36275202 -0.1717515 -0.23134658 0.12150425 0.59419185 0.16856407 0.016507667
-0.2495569 -0.20532905 0.03344971 0.021145003 0.3948091 0.8506336 0.008438929 -0.20517711
-0.06371871 -0.32993507 0.15884049 -0.19141024 0.54552126 1.8264536 -0.14105059 -0.07159613
1.8239346 0.047061175 -0.46863565 -0.5547951 -0.15514885 -0.18705864 0.1642726 -0.8349807
0.08281894 -0.21034545 -0.2650221 -0.8839721 -0.00053804374 -0.0015597908 -0.048534248 -1.0124637
0.15966538 -0.12959075 -0.26997736 -1.0227032 0.060560253 -0.61022395 0.0052620824 -1.2699908
00000000: 57cd 8b3e 4d28 3abf 8382 8f3d cab6 3cbd
00000010: 0947 e73d 7419 d6be 783d 133e a6c5 ca3d
00000020: 2c2d aabd 6e8a 91bf d6ff 563d 72d0 d33c
00000030: 7424 c8be 9371 f1be a866 3d3d 68ec b9bd
00000040: 3e06 9cbe 4e88 86bf 1151 ff3c 1900 83be
00000050: 609e 6fbf d37c 3bbf 2eb0 c9bd 3064 c93d
00000060: b9b5 8e3f 631e b6be 6596 3bbe 83c6 803f
00000070: 4a47 06be 3bb0 0dbe ae16 a0be 307d 523d
00000080: 77a6 c83d d69b 6f3d 5bc5 2ebe 9262 913f
00000090: 2785 28be aafc bc3e 3ecf b53e 20b9 8f3d
000000a0: b2c0 6a3d fb4a 653e 68e7 3abe 87a6 9a3f
000000b0: 05c8 bbbc 333b 463e f6e5 c93f 51fb 61be
000000c0: 01e3 2dbc 8d37 a93e 9e4c 78be 24ab 7bbd
000000d0: b64b 91bd cc89 3e3f 9c3e 6c3e 8d40 67be
000000e0: 88f5 3bbf 6d16 fd3e dbb8 513e c0b3 39be
000000f0: 13ea 4c3e 237b 603f d052 843d 9857 dcbb
00000100: 5090 f5be 6a9f fd3d 6706 78bd ba20 01bc
00000110: 96d7 db3e 0594 da3e a515 fcbd 43c2 1fbf
00000120: 9a04 393e 4f95 443d 9c3f cdbd 81aa 05bf
00000130: e87f 2ebe e4ce 4dbe be51 f53d e4ce 133f
00000140: 148f 9fbd 5a8d 56be a2da c63e 083a 5cbe
00000150: b161 62bd 2b95 f9bd d412 703d f1f7 1b3f
00000160: 69c9 a2bd 744d 1c3e 0eeb d43e fe97 cdbe
00000170: 5776 713c 12d3 d4ba 0c76 bfbe 6b9f be3e
00000180: 69e3 453c d3bf 07be 13bf 283f b4f9 b4bd
00000190: 9c36 a7bc 3543 3fbe bc0e ac3f 8a79 4fbf
000001a0: 4d06 cfbd 003e 503f 03eb 10be e8b0 50be
000001b0: 6199 9abe e5fe 593e 27f1 0c3e bda1 2e3c
000001c0: 51fd 00bd ad1e 953f 0603 a23d a062 dc3b
000001d0: 736e 1d3e 6b99 8e3e 10d8 f6bd ccd4 7fbe
000001e0: 3dd3 013f a259 753f a40f 34bd 7e35 613f
000001f0: 1f29 883f 3aff 993e 0887 6dbd d8bd 3b3f
00000200: e4fa 95be 5466 6e3e 2540 59be 8b9c 273f
00000210: 605b 0fbe a525 a83e fd27 913d 74ef e5be
00000220: c06b 0b3e d0cf 9a3e c8d0 c13c 3783 5a3f
00000230: 18ac 843d 1cb8 a2bd 7322 a53f cb06 3cbd
00000240: c801 c0bd ea7e 74be 4fa3 e8bc 4686 0b3f
00000250: b97a ff3d e7ac e9bd cda0 6b40 fbdd 353e
00000260: 0028 b1bd 288b 703d 617b 923d 382d 9abd
00000270: 4808 1e3e 078f 8fbf 73c7 be3d 2e08 323e
00000280: b671 253e 8df0 33bf 0bc0 97bc 71a7 bf3d
00000290: b84a a6bd 6507 b0bf 23b9 b13d ba31 cf3d
000002a0: b4d2 a13d 0c4c 3bbe 7778 223e 82ab 94bd
000002b0: 4940 08be a07e 04c0 34e0 64bb d162 86be
000002c0: fb8f 563e 4db3 f53e 59f2 0f3e 1058 a5bd
000002d0: 9482 bfbf ee3a 2a3f f215 b63e 5fa4 0bbf
000002e0: 18b2 c5bd fde1 68be 9c60 5a3f 1896 a53d
000002f0: e86d 1f3e 9f95 fbbd afda 84bc 0c39 26bf
00000300: 2ac4 09be d1ff c63e 639d fe3e ab82 03be
00000310: 119d 2dbe e64d e33c cca3 5bbe c00b 2bbf
00000320: fb2d 813d 8405 ebbd da6b c53e a82a 94be
00000330: 1998 883e 726c 80bd 7e98 dd3f 84b4 28bf
00000340: 9720 febd a2ba b9be a0df 2fbe 1ee6 6cbe
00000350: 38d7 f83d f51c 183f 0f9c 2c3e 163b 873c
00000360: d88b 7fbe c741 52be 9002 093d 4938 ad3c
00000370: 6b24 ca3e 20c3 593f 6f43 0a3c f319 52be
00000380: f47e 82bd 40ed a8be 15a7 223e 0c01 44be
00000390: 48a7 0b3f 3bc9 e93f 916f 10be fea0 92bd
000003a0: b076 e93f 38c3 403d 03f1 efbe 0d07 0ebf
000003b0: 57df 1ebe 4d8c 3fbe 1437 283e 4cc1 55bf
000003c0: fa9c a93d cc64 57be fab0 87be ff4b 62bf
000003d0: 810b 0dba e571 ccba d9cb 46bd 6998 81bf
000003e0: 527f 233e 70b3 04be 793a 8abe f0e7 82bf
000003f0: 070e 783d a337 1cbf 8c6d ac3b 0f8f a2bf

linear1.bias f4 [48]
0.38236305 -0.1962235 -0.6481965 0.3284076 -0.69996595 0.07202278 0.4031773 0.6623263
-0.627712 0.6016637 0.077262074 -0.043794177 0.58663917 -0.30550158 -0.019143267 0.048308708
-0.06015534 1.1653374 -0.23257415 -0.1917197 -0.14108257 -0.6094745 -0.48777544 -0.562415
0.21706715 -0.24635799 0.12357101 0.5614246 -0.33646676 -0.45820946 0.45667922 -0.0025281578
-0.0136799 -0.8902361 -0.16218148 -0.27292892 0.2297605 0.018647375 -0.12264945 0.23878619
-0.5684098 0.11356323 0.3684506 0.16613178 0.52619964 -0.10165041 0.13614488 0.067632295
00000000: 17c5 c33e d0ee 48be 35f0 25bf 0a25 a83e
00000010: f830 33bf ae80 933d 416d ce3e 378e 293f
00000020: bcb1 20bf a206 1a3f 943b 9e3d 8661 33bd
00000030: fc2d 163f b46a 9cbe 57d2 9cbc 5adf 453d
00000040: 7265 76bd c729 953f eb27 6ebe 2b52 44be
00000050: f377 10be 8506 1cbf b4bd f9be 6efa 0fbf
00000060: da46 5e3e 4545 7cbe cc12 fd3d 86b9 0f3f
00000070: 5f45 acbe 6e9a eabe dcd1 e93e 73af 25bb
00000080: a921 60bc 83e6 63bf e712 26be 57bd 8bbe
00000090: 5646 6b3e 61c2 983c a32f fbbd 5e84 743e
000000a0: 4e83 11bf d793 e83d 8fa5 bc3e 731e 2a3e
000000b0: 05b5 063f 172e d0bd 9069 0b3e cd82 8a3d

linear2.weight f4 [48, 48]
-0.35033694 -0.15911563 -0.07137934 -0.20485073 -0.0116675 -0.5588127 -0.13333854 -0.17202455
-0.19818662 -0.23628557 -0.18809266 -0.20585078 -0.706623 -0.15130393 -0.23711422 -0.30707967
-0.2388882 -0.41603288 -0.31035426 -0.32235116 -0.2402676 -0.35702607 -0.060094003 -0.25225455
-0.26473927 0.01694931 -0.38394132 -0.2833226 0.017875703 0.090872325 -0.303489 -0.29829293
-0.30035755 -0.15120254 -0.18735105 -0.19890997 -0.536664 -0.2763841 -0.07442923 -0.044716176
-0.34524477 0.306336 -0.18717909 -0.3957857 -0.2946902 -0.2627237 -0.20575662 -0.22350888
-0.3324331 -0.06842056 0.026517272 -0.14406203 -0.16732529 -0.65189594 -0.37733305 -0.13733172
0.19103263 -0.45447075 -0.544263 0.041151762 -0.8977511 0.1683828 -0.16735904 0.102947004
-0.009974366 -0.46540132 -0.27389833 0.121662565 0.16135761 -0.21578512 0.18763728 0.36327526
-0.075044125 0.20197211 -0.18682027 -0.82521516 -0.1244265 0.35566548 -0.3120255 -0.84161866
-0.116975404 -0.011647382 -0.1735051 -0.01388221 -0.15597066 -0.11315634 0.025639204 -0.10723084
-0.034190528 -1.0476829 -0.06918549 -0.620454 -0.034020852 -0.07727697 0.15096694 -0.017264232
-0.14822991 0.03677383 0.08600006 -0.124871105 0.32196355 -0.22829287 -0.0531824 -0.3661408
-0.14201503 -0.15646684 -0.30747697 -0.099475585 -0.29287174 -0.13321441 -0.29779932 -0.09847235
-0.08535172 -0.4347111 -0.28025517 -0.09882632 -0.10267433 -0.36441472 -0.33774197 -0.17815271
-0.23934047 0.07172607 -0.024524434 -0.25538984 -0.0664952 0.15584372 -0.1294458 -0.2877971
-0.22785482 -0.14866152 -0.3353783 -9.009559e-05 -0.6412767 -0.28159183 -0.10694324 -0.01156948
-0.20635681 0.13449895 -0.140563 -0.47309086 0.04485492 -0.02508325 -0.15236673 0.022383964
-0.12310589 0.10911268 0.019270992 -0.12521747 0.37818924 0.07618005 -0.1853925 -0.25463882
-0.18538035 -0.45570964 -0.5731601 -0.1890299 -0.37030622 0.011964851 -0.21453433 0.11045835
0.040156096 -0.51502156 -0.55354685 0.082712516 -0.050244134 -0.14487372 -0.14491597 0.10649747
-0.3518637 0.05040134 0.043716226 -0.2381725 -0.16251267 0.10491484 -0.17246638 -0.1774038
0.014665365 -0.031052751 -0.086336814 0.068158545 -0.38007942 -0.13653953 -0.060078565 -0.32471174
-0.20205182 0.5230997 -0.093133815 -0.8461364 -0.10710837 0.016805531 -0.01732656 0.14427173
-0.2577974 0.0070535117 0.094735615 -0.25402957 0.1036457 -0.17166469 -0.0640123 -0.3568644
-0.108490705 0.015365429 -0.35458508 0.015705073 -0.071813405 -0.21841058 -0.38362965 -0.14821242
-0.019147305 -0.1930879 -0.11498271 -0.13288148 0.017855356 -0.11133842 -0.084521756 -0.019496381
0.092603646 -0.021341272 -0.050188404 -0.07308896 -0.14423715 0.1198997 -0.22030687 -0.31957603
-0.18838704 -0.08261139 -0.18659611 -0.15232123 -0.51202583 -0.13425848 -0.16396947 -0.1306251
-0.044492517 0.2897218 -0.26692694 -0.48281285 -0.042974617 0.040136687 0.092151165 0.050576888
-0.19395171 0.19315042 0.10148192 -0.0064560957 0.40718976 0.09887419 -0.1793907 -0.23769504
0.16437821 -0.10305484 -0.2156126 -0.015041856 0.03921069 -0.051173795 0.0031486766 -0.013219334
00000000: 5d5f b3be 35ef 22be 552f 92bd 64c4 51be
00000010: 0b29 3fbc 590e 0fbf e689 08be 3427 30be
00000020: 6ff1 4abe d8f4 71be 5d9b 40be 8cca 52be
00000030: 3fe5 34bf 6bef 1abe 12ce 72be 8c39 9dbe
00000040: 1c9f 74be 4302 d5be c1e6 9ebe 360b a5be
00000050: b608 76be 1fcc b6be 2125 76bd 8227 81be
00000060: e88b 87be 48d9 8a3c f593 c4be a90f 91be
00000070: 1170 923c 451b ba3d e962 9bbe dab9 98be
00000080: 77c8 99be d7d4 1abe f4d8 3fbe 0eaf 4bbe
00000090: d062 09bf 3782 8dbe 5a6e 98bd 4f28 37bd
000000a0: ecc3 b0be 12d8 9c3e e0ab 3fbe 6ca4 cabe
000000b0: a2e1 96be b983 86be ddb1 52be 83df 64be
000000c0: ac34 aabe 1420 8cbd c03a d93c ff84 13be
000000d0: 5257 2bbe a7e2 26bf cc31 c1be b0a0 0cbe
000000e0: 0f9e 433e 64b0 e8be d254 0bbf c08e 283d
000000f0: 04d3 65bf 8a6c 2c3e 2b60 2bbe e1d5 d23d
00000100: 866b 23bc 1549 eebe 673c 8cbe 392a f93d
00000110: ee3a 253e c6f6 5cbe fd23 403e 37ff b93e
00000120: bcb0 99bd c7d1 4e3e d04d 3fbe 4d41 53bf
00000130: 52d3 febd c919 b63e cec1 9fbe 5274 57bf
00000140: cd90 efbd a9d4 3ebc 52ab 31be 3572 63bc
00000150: c6b6 1fbe 83be e7bd 4f09 d23c d89b dbbd
00000160: 5e0b 0cbd 791a 86bf 1fb1 8dbd 13d6 1ebf
00000170: 7359 0bbd 6343 9ebd 1497 1a3e b86d 8dbc
00000180: 95c9 17be 28a0 163d cd20 b03d 6cbc ffbd
00000190: 68d8 a43e 9bc5 69be cad5 59bd cf76 bbbe
000001a0: 636c 11be d838 20be 9f6d 9dbe dbb9 cbbd
000001b0: 49f3 95be 5c69 08be 2779 98be dfab c9bd
000001c0: e2cc aebd 7492 debe 9b7d 8fbe 7465 cabd
000001d0: eb46 d2bd 9194 babe 84ec acbe aa6d 36be
000001e0: ab15 75be 1ee5 923d 77e7 c8bc 75c2 82be
000001f0: a32e 88bd 7f95 1f3e 718d 04be 245a 93be
00000200: c652 69be ba3a 18be b4b6 abbe b4f1 bcb8
00000210: b62a 24bf ce2c 90be 0f05 dbbd eb8d 3dbc
00000220: 334f 53be 18ba 093e bfef 0fbe f738 f2be
00000230: cbb9 373d 637b cdbc 0606 1cbe 935e b73c
00000240: f11e fcbd 7876 df3d 33de 9d3c 0239 00be
00000250: 05a2 c13e 4904 9c3d 88d7 3dbe 0560 82be
00000260: 59d4 3dbe c652 e9be 9fba 12bf 0e91 41be
00000270: c798 bdbe 3908 443c e3ae 5bbe fd37 e23d
00000280: b87a 243d 74d8 03bf 3fb5 0dbf 2e65 a93d
00000290: cbcc 4dbd c759 14be da64 14be 581b da3d
000002a0: 7b27 b4be a371 4e3d c90f 333d 7ee3 73be
000002b0: b969 26be 97dd d63d 079b 30be 57a9 35be
000002c0: 0047 703c 5762 febc 5bd1 b0bd b596 8b3d
000002d0: c599 c2be 05d1 0bbe f114 76bd 9e40 a6be
000002e0: ace6 4ebe dde9 053f f1bc bebd 659c 58bf
000002f0: a25b dbbd c1ab 893c 6ef0 8dbc f8bb 133e
00000300: 05fe 83be 2521 e73b bf04 c23d 2a10 82be
00000310: 3244 d43d dec8 2fbe e118 83bd eeb6 b6be
00000320: 6030 debd 48bf 7b3c 2d8c b5be eda7 803c
00000330: e812 93bd 06a7 5fbe 1b6b c4be ffc4 17be
00000340: cfda 9cbc d6b8 45be 0e7c ebbd 1512 08be
00000350: 6545 923c 6605 e4bd be19 adbd e0b6 9fbc
00000360: fba6 bd3d e4d3 aebc 5b92 4dbd aaaf 95bd
00000370: e7b2 13be f98d f53d 2098 61be 789f a3be
00000380: 88e8 40be 2930 a9bd 0d13 3fbe 19fa 1bbe
00000390: 2014 03bf 0e7b 09be 9de7 27be 96c2 05be
000003a0: c93d 36bd 6a56 943e a6aa 88be 3f33 f7be
000003b0: 2706 30bd 5e66 243d c0b9 bc3d b629 4f3d
000003c0: 479b 46be 39c9 453e c1d5 cf3d a88d d3bb
000003d0: 2d7b d03e 8d7e ca3d 32b2 37be 5466 73be
000003e0: c352 283e 6a0e d3bd 8dc9 5cbe 1e72 76bc
000003f0: 639b 203d 9d9b 51bd 075a 4e3b e895 58bc

linear2.bias f4 [48]
-0.2763814 -0.2356407 -0.32115877 -0.0739222 -0.1126937 -0.18577334 -0.14666194 -0.0067945533
-0.013789203 -0.08080576 0.069435254 -0.09430702 0.0062826867 -0.055945713 -0.06513589 0.04567817
-0.33162722 -0.19954231 -0.28471202 -0.092897825 -0.18588316 -0.040186405 0.13750976 -0.114110135
-0.04718669 0.08533286 -0.104095384 -0.018695291 0.0014369752 0.0265275 -0.044569217 -0.18575317
-0.057324424 0.044858098 -0.09572974 -0.114852175 -0.16651106 0.0234256 0.041322537 -0.14490996
0.17604524 -0.010035038 -0.085935876 -0.19048926 -0.00610264 -0.3564281 0.08335326 0.07429733
00000000: dd81 8dbe cc4b 71be ec6e a4be 8664 97bd
00000010: f4cb e6bd 5e3b 3ebe 8c2e 16be d8a4 debb
00000020: 1cec 61bc 7e7d a5bd 1234 8e3d 0a24 c1bd
00000030: ffde cd3b 5527 65bd f765 85bd 0819 3b3d
00000040: 0bcb a9be d254 4cbe c6c5 91be 3741 bebd
00000050: 2858 3ebe 809a 24bd 5ccf 0c3e 93b2 e9bd
00000060: d546 41bd ffc2 ae3d f62f d5bd de26 99bc
00000070: e358 bc3a 3350 d93c 368e 36bd 1436 3ebe
00000080: 04cd 6abd 20bd 373d f40d c4bd 9e37 ebbd
00000090: e081 2abe 0be7 bf3c d241 293d 4763 14be
000000a0: 3445 343e 006a 24bc 26ff afbd 9e0f 43be
000000b0: a8f8 c7bb be7d b6be 1db5 aa3d 3329 983d

linear3.weight f4 [32, 48]
-0.17647842 -0.026452223 -0.097972326 -0.07083515 -0.16362055 -0.12337052 -0.28356335 -0.2963448
-0.19061902 -0.4406805 -0.26691207 -0.1528572 -0.26979366 -0.021908024 -0.19022422 -0.10437486
-0.2420141 -0.31525734 -0.31631795 -0.18720318 -0.095213704 -0.3320623 -0.32950118 -0.11224921
0.18957199 -0.33078215 -0.15778925 -0.34949562 -0.2648506 -0.27902934 -0.37473294 -0.11446437
-0.3304696 -0.29091647 -0.29723492 -0.3442463 0.22364454 -0.124681294 -0.12199442 -0.22592565
-0.14059436 0.38426623 -0.5028501 -0.20721325 -0.3616929 -0.18489936 -0.2215151 0.3775292
-0.154043 -0.04786878 -0.075533114 -0.00896697 -0.23146771 -0.24288371 -0.14498785 -0.15828334
-0.12801422 -0.40567496 -0.35558423 0.13473704 -0.0020048777 0.0350085 -0.14917544 -0.32833907
-0.21567881 -0.16730137 -0.26992387 0.056096334 -0.082706526 -0.012523571 -0.33684397 -0.0030200244
0.0020760992 -0.43664363 -0.3311188 -0.2860532 -0.14096703 -0.35423982 -0.3674499 -0.19086348
-0.072211996 -0.20430066 -0.2781298 -0.31016937 0.31716216 0.036606736 -0.14156996 -0.27146736
-0.07112871 0.16579959 -0.26506948 -0.2067006 -0.3914709 -0.105508976 -0.15722461 0.33026055
-0.090188436 -0.05722227 0.042862475 0.05376259 -0.053128716 -0.20411664 0.02368157 -0.017195614
0.026347628 0.124210335 -0.1704019 -0.12418587 -0.12160937 -0.31147054 -0.12477968 0.0033788285
0.07150422 -0.022363361 -0.05229693 -0.29202047 -0.08712838 -0.025097584 0.018026935 -0.160304
-0.38187692 0.3065193 -0.10421625 -0.09249939 0.019803561 -0.096410885 0.13183053 -0.035263233
-0.0605042 0.026637504 0.12731244 0.010401224 -0.16020998 -0.07661855 -0.22050086 0.14119296
-0.18797767 -0.41239733 0.1166964 0.16017106 0.078492686 -0.12191214 -0.15244736 -0.4467395
-0.3506203 -0.31674394 -0.55550826 -0.48101804 -0.6395935 -0.58305556 -0.4667253 -0.3022628
-0.415188 -0.57024163 -0.7489883 -0.38161713 -0.37468168 -0.4929709 -0.53874767 -0.7465652
-0.43206456 -0.37832385 -0.33456105 -0.5947859 -0.110467814 -0.65762436 -0.6745669 -0.5002413
-0.1587778 -0.22431742 -0.55233836 -0.46699697 -0.68002063 -0.4277985 -0.56792694 -0.40298766
-0.46692163 -0.3083039 -0.17166531 -0.3984843 -0.3683794 -0.15641902 -0.5896841 -0.44576317
-0.68872607 -0.043729413 -0.33286753 -0.30841073 -0.3756116 -0.32344356 -0.60348314 0.05007137
0.14549722 -0.22168347 0.078301445 -0.13296658 0.0029103984 -0.12918508 0.05375214 0.061543502
-0.13717483 0.26283604 -0.017023476 -0.1970468 -0.12076756 -0.100869015 -0.08984822 -0.0777789
0.01911315 0.08553834 -0.07948564 -0.19206387 -0.029469308 0.1142938 -0.122316554 -0.11129588
-0.3031442 0.34222135 -0.017446157 -0.01625875 -0.1388742 0.03129714 0.25636292 -0.070942245
-0.16023359 -0.03162762 0.1471415 -0.009241935 -0.38771573 -0.1267498 -0.022521127 -0.056450997
-0.092164 -0.34396186 0.021632625 0.17800461 0.14387351 0.12883905 -0.19630435 -0.5313941
0.14398982 -0.2208138 -0.118652955 -0.17413324 -0.055063553 -0.09266639 -0.07770871 0.06179958
-0.047340617 -0.07247465 -0.08599281 -0.23053563 -0.21009494 -0.17143966 0.018127851 -0.19350056
00000000: c2b6 34be 55b2 d8bc b7a5 c8bd 0512 91bd
00000010: 258c 27be afa9 fcbd 372f 91be 81ba 97be
00000020: a231 43be e0a0 e1be b3a8 88be 9986 1cbe
00000030: 6522 8abe 7578 b3bc 23ca 42be 7dc2 d5bd
00000040: 8bd2 77be 6969 a1be 6df4 a1be 31b2 3fbe
00000050: 67ff c2bd 1204 aabe 61b4 a8be eae2 e5bd
00000060: 291f 423e 475c a9be 8193 21be 17f1 b2be
00000070: 7f9a 87be efdc 8ebe ffdc bfbe 4c6c eabd
00000080: 5033 a9be 01f3 94be 2d2f 98be 0d41 b0be
00000090: 1303 653e e858 ffbd 36d8 f9bd 0e59 67be
000000a0: f8f7 0fbe 8bbe c43e c9ba 00bf b62f 54be
000000b0: d02f b9be 4256 3dbe dbd4 62be 824b c13e
000000c0: 73bd 1dbe 0e12 44bd 1bb1 9abd 33ea 12bc
000000d0: df05 6dbe 82b6 78be b277 14be 0715 22be
000000e0: 2916 03be a1b4 cfbe 230f b6be 82f8 093e
000000f0: 4464 03bb 1365 0f3d 72c1 18be 0f1c a8be
00000100: e8da 5cbe 0d51 2bbe 7633 8abe 45c5 653d
00000110: 0a62 a9bd aa2f 4dbc d076 acbe 9aeb 45bb
00000120: 2a0f 083b c18f dfbe 6788 a9be 9175 92be
00000130: a959 10be ec5e b5be 6522 bcbe b771 43be
00000140: e2e3 93bd 3134 51be 0767 8ebe 85ce 9ebe
00000150: 1463 a23e f2f0 153d b7f7 10be c5fd 8abe
00000160: eeab 91bd 5ec7 293e 30b7 87be 52a9 53be
00000170: e06e c8be 1715 d8bd 7dff 20be e917 a93e
00000180: b7b4 b8bd e661 6abd 9090 2f3d 2936 5c3d
00000190: 7f9d 59bd f403 51be daff c13c d1dd 8cbc
000001a0: fbd6 d73c fd61 fe3d d67d 2ebe 2955 febd
000001b0: 550e f9bd 1179 9fbe 7d8c ffbd 566f 5d3b
000001c0: ce70 923d 5e33 b7bc 4e35 56bd b583 95be
000001d0: 5d70 b2bd 7399 cdbc 39ad 933c bb26 24be
000001e0: 5f85 c3be 19f0 9c3e 546f d5bd 5270 bdbd
000001f0: 143b a23c 1273 c5bd 95fe 063e 2e70 10bd
00000200: 41d3 77bd e536 da3c 315e 023e e569 2a3c
00000210: 160e 24be 30ea 9cbd faca 61be e394 103e
00000220: 387d 40be be25 d3be 86fe ee3d e203 243e
00000230: c6c0 a03d 12ad f9bd 291b 1cbe 0abb e4be
00000240: 8184 b3be 432c a2be ca35 0ebf ff47 f6be
00000250: 66bc 23bf 2143 15bf 9ef6 eebe 31c2 9abe
00000260: 8693 d4be 5bfb 11bf b2bd 3fbf 5263 c3be
00000270: 47d6 bfbe af66 fcbe 5eeb 09bf e61e 3fbf
00000280: 9137 ddbe aab3 c1be 964b abbe e443 18bf
00000290: f33c e2bd 125a 28bf 6bb0 2cbf d00f 00bf
000002a0: a696 22be 77b3 65be 0c66 0dbf 3a1a efbe
000002b0: d515 2ebf 6808 dbbe a963 11bf 6654 cebe
000002c0: 5a10 efbe 02da 9dbe 08c9 2fbe 2206 ccbe
000002d0: 3a9c bcbe 4f2c 20be 8af5 16bf 123b e4be
000002e0: 5a50 30bf 9d1d 33bd 9d6d aabe 03e8 9dbe
000002f0: 2a50 c0be 659a a5be df7d 1abf a317 4d3d
00000300: 39fd 143e fe00 63be 825c a03d 6428 08be
00000310: 62bc 3e3b 1849 04be 342b 5c3d 0a15 7c3d
00000320: 8f77 0cbe 7292 863e d174 8bbc a3c6 49be
00000330: fc54 f7bd 6a94 cebd 5802 b8bd 8b4a 9fbd
00000340: 2e93 9c3c ba2e af3d 5ec9 a2bd 64ac 44be
00000350: 9e69 f1bc de12 ea3d 1a81 fabd 18ef e3bd
00000360: b735 9bbe a337 af3e 3eeb 8ebc 1231 85bc
00000370: 0a35 0ebe 6e31 003d 0042 833e 2b4a 91bd
00000380: 4614 24be f78b 01bd 43ac 163e 7c6b 17bc
00000390: ad82 c6be b3ca 01be 3a7e b8bc 2939 67bd
000003a0: 7bc0 bcbd c51b b0be e736 b13c d746 363e
000003b0: 9453 133e 62ee 033e 0204 49be 7209 08bf
000003c0: 1172 133e 031d 62be 5200 f3bd fc4f 32be
000003d0: 528a 61bd e0c7 bdbd bf25 9fbd 8e21 7d3d
000003e0: 3ce8 41bd 976d 94bd 001d b0bd 8811 6cbe
000003f0: 2123 57be e18d 2fbe dc80 943c 0325 46be

linear3.bias f4 [32]
-0.16401727 -0.2718916 -0.051086184 -0.69386417 0.026508268 -0.15721865 -0.016502064 -0.6400236
-0.22321591 -0.49274 -0.041160747 -0.710455 -0.032723285 -0.7432902 -0.67953146 -0.66859293
-0.050725836 -0.620925 -0.71664846 -0.25773767 -0.31130254 -0.08502959 -0.57987976 0.0089954715
-0.24657996 -0.23256269 -0.064071044 -0.72917414 -0.6108064 -0.65978086 -0.5344808 0.06133263
00000000: 25f4 27be 6035 8bbe bf3f 51bd 15a1 31bf
00000010: de27 d93c edfd 20be 562f 87bc 96d8 23bf
00000020: b692 64be 6b48 fcbe 2c98 28bd 61e0 35bf
00000030: da08 06bd 4448 3ebf c6f5 2dbf e828 2bbf
00000040: e5c5 4fbd f1f4 1ebf 4676 37bf 31f6 83be
00000050: 0c63 9fbe fe23 aebd 0073 14bf be61 133c
00000060: 757f 7cbe ea24 6ebe ae37 83bd 28ab 3abf
00000070: cf5d 1cbf 66e7 28bf bcd3 08bf ed37 7b3d

linear4.weight f4 [2, 32]
-0.06291784 -0.07414362 0.1175081 -0.099930875 0.100474805 0.15897277 0.12822528 -0.060092147
0.13248837 -0.088539094 0.024418905 -0.0031185993 -0.05846707 0.036803626 -0.13985261 -0.08350061
-0.019226355 0.07721538 -0.11375198 -0.011974696 0.11381395 0.105421804 -0.0382294 0.0015572575
0.12168781 0.052551888 0.16812505 0.060306065 0.09852441 -0.0062663066 0.014110591 0.10011804
0.012576992 -0.010958144 0.046138346 0.0915942 0.10986304 0.01110624 0.031200327 0.045714755
-0.044159345 0.0746994 0.09763007 -0.054420076 -0.022993285 -0.049702667 0.1338574 0.07114949
0.099329665 -0.07810974 0.10085736 0.13040152 -0.115137555 0.06429864 0.012085076 0.15115657
-0.14333522 0.04898446 0.07438266 -0.064220265 -0.13339157 -0.055384487 -0.0628399 0.18810423
00000000: 12db 80bd 9cd8 97bd 16a8 f03d 8fa8 ccbd
00000010: bcc5 cd3d c2c9 223e 7d4d 033e 2f23 76bd
00000020: 08ab 073e fc53 b5bd 280a c83c 6a61 4cbb
00000030: 2b7b 6fbd 66bf 163d 8635 0fbe 5e02 abbd
00000040: 9780 9dbc 1923 9e3d ccf6 e8bd 8431 44bc
00000050: 4a17 e93d 63e7 d73d 6e96 1cbd e41c cc3a
00000060: 7537 f93d a640 573d f928 2c3e 7e03 773d
00000070: 2ac7 c93d 9755 cdbb 1c30 673c b00a cd3d
00000080: ba0f 4e3c ca89 33bc 90fb 3c3d bd95 bb3d
00000090: e0ff e03d f2f6 353c d497 ff3c 653f 3b3d
000000a0: 6ee0 34bd 00fc 983d 46f2 c73d 96e7 5ebd
000000b0: 6a5c bcbc 0695 4bbd ea11 093e d3b6 913d
000000c0: 5a6d cb3d 00f8 9fbd 4e8e ce3d fa87 053e
000000d0: 3dcd ebbd 01af 833d 7c00 463c cac8 1a3e
000000e0: 78c6 12be eea3 483d f055 983d ea85 83bd
000000f0: cd97 08be d8da 62bd 35b2 80bd 659e 403e

linear4.bias f4 [2]
-0.06545768 -0.04899372
00000000: ad0e 86bd a4ad 48bd
