MODEL_CHECKPOINT.3764827.critic.pt (torch_old, 22417 bytes, 8 tensors)

linear1.weight f4 [48, 26]
0.27424073 -0.7245183 0.07035445 -0.050911147 0.11198858 -0.41856676 0.14407043 0.09417132
-0.082892604 -1.1359279 0.049851604 0.01995433 -0.391547 -0.47293618 0.043602012 -0.09668469
-0.30427754 -1.0510463 0.030847067 -0.25923648 -0.9364157 -0.73435056 -0.09879992 0.09495895
1.115198 -0.35580686 -0.18574901 1.0029508 -0.13395745 -0.13649856 -0.31285164 0.051061872
0.095147505 0.060367018 -0.17333052 1.1341529 -0.1628844 0.37205175 0.35505176 0.06987286
0.05899861 0.22685532 -0.18371332 1.2071595 -0.018222837 0.19516976 1.5777614 -0.22146888
-0.0059135226 0.3320862 -0.23983979 -0.062886424 -0.06716178 0.7414165 0.23354487 -0.22378781
-0.73070914 0.49503845 0.20764409 -0.17930543 0.20400734 0.8744544 0.06584237 -0.0023512177
-0.47597352 0.12522228 -0.059321575 -0.0035082486 0.43317062 0.42467153 -0.12082294 -0.62365556
0.18449843 0.049701497 -0.097953744 -0.52173054 -0.16975126 -0.20333087 0.11809039 0.5803618
-0.0774818 -0.20847969 0.38762188 -0.21367285 -0.054841112 -0.120822765 0.056310717 0.61111414
-0.08167881 0.14822882 0.41460297 -0.40082046 0.012544462 -0.0060339817 -0.37714264 0.37269562
0.0110335145 -0.13672686 0.6571082 -0.08809265 -0.021456378 -0.1909389 1.3465008 -0.8127117
-0.10555551 0.80891746 -0.14498377 -0.200728 -0.30263984 0.21544416 0.1341761 0.013730363
-0.03511521 1.1616195 0.08392194 0.00748676 0.15371491 0.28140807 -0.11571455 -0.24907377
0.5033444 0.9566531 -0.042378902 0.88281786 1.064534 0.30356994 -0.056408755 0.73646164
-0.29167956 0.2333712 -0.21299835 0.65724266 -0.14071566 0.3306848 0.067721374 -0.44887218
0.13543426 0.3046395 0.022889335 0.8567674 0.06376027 -0.07658695 1.287112 -0.04562106
-0.09477431 -0.23589952 -0.030190257 0.54907423 0.12259988 -0.11004937 3.67991 0.17796811
-0.08864775 0.062776275 0.068640135 -0.070892595 0.15445846 -1.1224486 0.090176806 0.1720913
0.16045156 -0.70383716 -0.021501103 0.09181314 -0.082158126 -1.3766422 0.08424507 0.09920325
0.07717293 -0.1843796 0.1561288 -0.0745584 -0.13184232 -2.0709836 0.002004237 -0.26051596
0.20737073 0.478116 0.14606941 -0.078777716 -1.4999379 0.66694117 0.35467312 -0.5449436
-0.0976252 -0.2280061 0.8535595 0.08152269 0.15459844 -0.123425536 -0.016478691 -0.6480323
-0.13293566 0.3914329 0.49788317 -0.12767372 -0.16794278 0.03050991 -0.21411793 -0.66802937
0.0645616 -0.117984325 0.38635376 -0.28847238 0.2682709 -0.06593462 1.7311078 -0.6583816
-0.11981892 -0.36835206 -0.16598201 -0.235352 0.12568432 0.5901911 0.17433327 0.012502083
-0.24636494 -0.21123481 0.028453767 0.018477023 0.3992714 0.84595937 0.003443021 -0.20784488
-0.059079148 -0.33575198 0.1645297 -0.18770227 0.5502088 1.8213406 -0.13536103 -0.06788833
1.8221442 0.044867005 -0.4776677 -0.55241174 -0.16139802 -0.17982167 0.15625095 -0.8293783
0.07656958 -0.20310843 -0.27405372 -0.87926424 0.004543441 0.0047799004 -0.057153657 -1.0086108
0.16474667 -0.12325093 -0.27990505 -1.0161885 0.05791687 -0.60457623 -0.0040129065 -1.2681361
00000000: 4869 8c3e 087a 39bf fe15 903d 3588 50bd
00000010: 455a e53d 624e d6be 3387 133e e5dc c03d
00000020: 99c3 a9bd 1666 91bf 3231 4c3d 4377 a33c
00000030: d978 c8be b124 f2be 0698 323d 9f02 c6bd
00000040: 44ca 9bbe af88 86bf fdb2 fc3c a5ba 84be
00000050: f0b8 6fbf 66fe 3bbf 9d57 cabd d779 c23d
00000060: cfbe 8e3f 512c b6be fd34 3ebe b160 803f
00000070: 242c 09be 47c6 0bbe 172e a0be 4126 513d
00000080: b2dc c23d 6843 773d 8e7d 31be ec2b 913f
00000090: 2bcb 26be 917d be3e 58c9 b53e 8119 8f3d
000000a0: 87a8 713d c34c 683e 581f 3cbe 3484 9a3f
000000b0: 0f48 95bc 95da 473e 16f4 c93f bdc8 62be
000000c0: 39c6 c1bb 3407 aa3e 9098 75be 99ca 80bd
000000d0: 1e8c 89bd 79cd 3d3f 6326 6f3e a228 65be
000000e0: c10f 3bbf ae75 fd3e a7a0 543e d89b 37be
000000f0: 4de7 503e 3edc 5f3f 5dd8 863d e316 1abb
00000100: cdb2 f3be 453a 003e 2efb 72bd a5ea 65bb
00000110: 8ac8 dd3e 8c6e d93e 0472 f7bd e4a7 1fbf
00000120: 28ed 3c3e cc93 4b3d f99b c8bd 2290 05bf
00000130: 46d3 2dbe f835 50be 60d9 f13d 9792 143f
00000140: c7ae 9ebd b37b 55be 6076 c63e 0ecd 5abe
00000150: 13a1 60bd ed71 f7bd 11a6 663d fa71 1c3f
00000160: 3847 a7bd 4cc9 173e d746 d43e 5738 cdbe
00000170: 4a87 4d3c b5b8 c5bb d718 c1be f6d1 be3e
00000180: eac5 343c 2002 0cbe 3e38 283f eb69 b4bd
00000190: 49c5 afbc 7d85 43be 235a ac3f e00d 50bf
000001a0: 7d2d d8bd 3715 4f3f a076 14be a48b 4dbe
000001b0: 9cf3 9abe 659d 5c3e 7665 093e 51f5 603c
000001c0: f7d4 0fbd f3af 943f 44df ab3d 7f53 f53b
000001d0: 7167 1d3e b814 903e c0fb ecbd 320d 7fbe
000001e0: 2edb 003f 38e7 743f 8095 2dbd 5a00 623f
000001f0: a642 883f 856d 9b3e de0c 67bd c088 3c3f
00000200: 0657 95be dcf8 6e3e 3d1c 5abe 0e41 283f
00000210: c417 10be 854f a93e 81b1 8a3d 93d2 e5be
00000220: 47af 0a3e b5f9 9b3e 6a82 bb3c 1c55 5b3f
00000230: bf94 823d 9ed9 9cbd 16c0 a43f 26dd 3abd
00000240: 0919 c2bd a58f 71be 8f51 f7bc 2190 0c3f
00000250: a515 fb3d 9061 e1bd a583 6b40 463d 363e
00000260: f48c b5bd d990 803d 3393 8c3d 2330 91bd
00000270: 5c2a 1e3e 65ac 8fbf 9eae b83d b438 303e
00000280: 6a4d 243e ac2e 34bf 1523 b0bc 8708 bc3d
00000290: 8542 a8bd d035 b0bf ae88 ac3d 132b cb3d
000002a0: d70c 9e3d 02ce 3cbe 3ae0 1f3e 13b2 98bd
000002b0: ac01 07be ff8a 04c0 8459 033b 5962 85be
000002c0: fe58 543e 9fcb f43e 3893 153e 3656 a1bd
000002d0: f7fd bfbf a8bc 2a3f b797 b53e 6c81 0bbf
000002e0: b9ef c7bd 6e7a 69be e082 5a3f 5ef5 a63d
000002f0: 0e4f 1e3e 87c6 fcbd 52fe 86bc 72e5 25bf
00000300: 4920 08be e569 c83e 8bea fe3e e6bc 02be
00000310: 31f9 2bbe ebef f93c bb41 5bbe f903 2bbf
00000320: df38 843d c4a1 f1bd 29d0 c53e a7b2 93be
00000330: ce5a 893e bb08 87bd f194 dd3f b28b 28bf
00000340: 9f63 f5bd a498 bcbe 30f7 29be 1d00 71be
00000350: 64b3 003e c416 173f 6c84 323e 89d5 4c3c
00000360: 1747 7cbe f04d 58be e017 e93c 205d 973c
00000370: 4d6d cc3e cb90 583f 4fa4 613b 4ad5 54be
00000380: fafc 71bd afe7 abbe 797a 283e 0635 40be
00000390: 7cda 0c3f b021 e93f 159c 0abe 0909 8bbd
000003a0: 053c e93f 77c6 373d dc90 f4be db6a 0dbf
000003b0: 8645 25be 2c23 38be 4000 203e 2352 54bf
000003c0: 83d0 9c3d a8fb 4fbe c550 8cbe 7617 61bf
000003d0: 25e1 943b b6a0 9c3b f419 6abd 291a 81bf
000003e0: 5ab3 283e fc6a fcbd b74f 8fbe 7712 82bf
000003f0: 3d3a 6d3d 82c5 1abf b37e 83bb 4952 a2bf

linear1.bias f4 [48]
0.3818425 -0.19545929 -0.6482159 0.33009848 -0.6971037 0.07135483 0.4041591 0.66252375
-0.6300412 0.610027 0.07967032 -0.046774082 0.58738726 -0.3052658 -0.018354649 0.042875495
-0.062459394 1.1671119 -0.23144157 -0.19239493 -0.14247493 -0.61299217 -0.4880681 -0.56513894
0.21912163 -0.24479543 0.12252276 0.55832475 -0.3392424 -0.4588226 0.45688716 -0.0034490137
-0.007428516 -0.8860145 -0.16388866 -0.27266526 0.22836576 0.014084287 -0.12036844 0.2346056
-0.56527776 0.11501936 0.36532596 0.16618107 0.5317311 -0.1026023 0.13716003 0.0656972
00000000: dc80 c33e 7b26 48be 7af1 25bf ab02 a93e
00000010: 6375 32bf 7b22 923d f1ed ce3e 289b 293f
00000020: 614a 21bf bb2a 1c3f 312a a33d 2e96 3fbd
00000030: 035f 163f cd4b 9cbe 7d5c 96bc 379e 2f3d
00000040: 6cd5 7fbd ec63 953f 05ff 6cbe 2d03 45be
00000050: f3e4 11be 0eed 1cbf 10e4 f9be f2ac 10bf
00000060: 6c61 603e a7ab 7abe 36ed fa3d 5fee 0e3f
00000070: 2eb1 adbe ccea eabe 1ded e93e d908 62bb
00000080: e96a f3bb d9d1 62bf 6ed2 27be c89a 8bbe
00000090: b7d8 693e c8c1 663c bb83 f6bd 733c 703e
000000a0: 0bb6 10bf 458f eb3d 010c bb3e 5f2b 2a3e
000000b0: 881f 083f 2821 d2bd ae73 0c3e 418c 863d

linear2.weight f4 [48, 48]
-0.35060617 -0.15987104 -0.072936915 -0.2042474 -0.012874351 -0.55976325 -0.13382588 -0.17409845
-0.19810542 -0.23595819 -0.18857157 -0.20519353 -0.7059751 -0.15331222 -0.2385405 -0.30646056
-0.23986997 -0.41636646 -0.31166086 -0.32124546 -0.2401561 -0.35811827 -0.06373475 -0.25282755
-0.26360816 0.0154337855 -0.38601762 -0.28365475 0.017250486 0.08990074 -0.30397034 -0.29726446
-0.30305716 -0.15234825 -0.18831767 -0.20061693 -0.537579 -0.27672282 -0.07529946 -0.047240645
-0.34781432 0.30527645 -0.18738759 -0.39578772 -0.2937214 -0.2640678 -0.20464858 -0.22432037
-0.33292788 -0.06769395 0.027736817 -0.14438626 -0.16576116 -0.6506528 -0.37663484 -0.13535069
0.19077735 -0.45614275 -0.5427246 0.038924612 -0.89829844 0.17082396 -0.16304913 0.1023063
-0.0089231655 -0.46542624 -0.27208313 0.1199572 0.16119829 -0.21528657 0.19173199 0.36473474
-0.0764028 0.2023454 -0.18474865 -0.8233316 -0.124837965 0.3555635 -0.31156248 -0.8428136
-0.11547113 -0.00965161 -0.17315365 -0.012363628 -0.15565234 -0.11219169 0.025921013 -0.10671574
-0.03307026 -1.0456895 -0.069548875 -0.6186348 -0.03419263 -0.07651653 0.15025532 -0.01769273
-0.14968695 0.035725243 0.085079625 -0.12392596 0.32053426 -0.22804654 -0.055008195 -0.3660505
-0.14292094 -0.15672356 -0.3062952 -0.10005712 -0.29352805 -0.13449788 -0.2981756 -0.098472215
-0.086998925 -0.43529752 -0.27994758 -0.098331936 -0.10339274 -0.36606884 -0.34076706 -0.17923312
-0.2396937 0.06985768 -0.024987068 -0.25539744 -0.0678449 0.15435332 -0.12976982 -0.2886097
-0.22979714 -0.15006706 -0.33701316 -0.0014429952 -0.64294595 -0.28260922 -0.108412355 -0.011807216
-0.20787227 0.13479643 -0.14223723 -0.47269002 0.04489815 -0.027192941 -0.15193897 0.021288138
-0.12310804 0.109957755 0.021297831 -0.12439978 0.3789617 0.07887291 -0.18514158 -0.25301355
-0.1850696 -0.45549324 -0.575361 -0.1919759 -0.37028167 0.01360365 -0.21383032 0.11098807
0.04206623 -0.51468813 -0.5525477 0.08032843 -0.048892103 -0.14392345 -0.14074239 0.10680866
-0.35345015 0.051199477 0.046426885 -0.23673537 -0.16393942 0.10556081 -0.17041528 -0.17731315
0.016818006 -0.030305892 -0.08585165 0.07044017 -0.37918082 -0.13581753 -0.05943865 -0.32271558
-0.20294067 0.52367073 -0.09472369 -0.8468553 -0.10642584 0.016567536 -0.015933737 0.14383014
-0.257674 0.0061939824 0.09599832 -0.25334847 0.10293116 -0.17039041 -0.064481236 -0.35622516
-0.10956358 0.015434946 -0.35750446 0.013180598 -0.072462775 -0.21872117 -0.38325694 -0.14874071
-0.017974216 -0.1936811 -0.11432727 -0.13391404 0.017983042 -0.111715496 -0.08277653 -0.020694051
0.0910156 -0.021408295 -0.048441187 -0.072778486 -0.14623109 0.1201045 -0.21961768 -0.32069325
-0.18700205 -0.08255644 -0.18715398 -0.15083013 -0.5123507 -0.13463302 -0.16460694 -0.12875664
-0.046223093 0.28948992 -0.26894978 -0.4829299 -0.043385826 0.03898813 0.09232655 0.04973994
-0.19414239 0.19319564 0.10227758 -0.0055636885 0.40685907 0.09997793 -0.17944928 -0.23699547
0.16419558 -0.103006706 -0.21694805 -0.016461378 0.038592983 -0.050703384 0.003570748 -0.01294097
00000000: a782 b3be 3cb5 23be f35f 95bd 3b26 51be
00000010: f1ee 52bc a54c 0fbf a709 09be dd46 32be
00000020: 26dc 4abe 069f 71be e818 41be 411e 52be
00000030: c9ba 34bf e1fd 1cbe f643 74be 66e8 9cbe
00000040: 79a0 75be fc2d d5be 0392 9fbe 497a a4be
00000050: 7beb 75be 475b b7be 5d87 82bd 9d72 81be
00000060: a6f7 86be fddd 7c3c 1aa4 c5be 323b 91be
00000070: e450 8d3c e11d b83d 00a2 9bbe 0c33 98be
00000080: 4f2a 9bbe 2e01 1cbe 59d6 40be 866e 4dbe
00000090: c79e 09bf 9dae 8dbe 9a36 9abd 687f 41bd
000000a0: b814 b2be 324d 9c3e 88e2 3fbe b0a4 cabe
000000b0: a762 96be e533 87be 668f 51be 3db4 65be
000000c0: 8675 aabe 20a3 8abd 5238 e33c fed9 13be
000000d0: 4bbd 29be 2f91 26bf 48d6 c0be 5f99 0abe
000000e0: 235b 433e 8b8b e9be 00f0 0abf 6a6f 1f3d
000000f0: e3f6 65bf 7aec 2e3e 5af6 26be f785 d13d
00000100: 7832 12bc 594c eebe 7b4e 8bbe 1fac f53d
00000110: 2a11 253e 1574 5cbe 6455 443e 83be ba3e
00000120: 1279 9cbd a233 4f3e c02e 3dbe dcc5 52bf
00000130: 0cab ffbd 6b0c b63e 1e85 9fbe a2c2 57bf
00000140: 217c ecbd c921 1ebc 314f 31be d090 4abc
00000150: 5463 1fbe c2c4 e5bd 4e58 d43c c88d dabd
00000160: ae74 07bd 27d9 85bf a46f 8ebd da5e 1ebf
00000170: 920d 0cbd b3b4 9cbd 88dc 193e 58f0 90bc
00000180: 8947 19be a254 123d 3a3e ae3d e5cc fdbd
00000190: 111d a43e 0885 69be 4650 61bd f96a bbbe
000001a0: de59 12be 247c 20be b9d2 9cbe bfea ccbd
000001b0: 4f49 96be d0b9 09be 79aa 98be cdab c9bd
000001c0: 7e2c b2bd 51df debe 4a55 8fbe 4162 c9bd
000001d0: 93bf d3bd 606d bbbe 0579 aebe e388 37be
000001e0: 4472 75be 8b11 8f3d aeb1 ccbc 74c3 82be
000001f0: 44f2 8abd cc0e 1e3e 61e2 04be a7c4 93be
00000200: f14f 6bbe 2eab 19be fd8c acbe e222 bdba
00000210: 1b98 24bf 28b2 90be 4c07 debd 0e73 41bc
00000220: 78dc 54be 1308 0a3e a3a6 11be 6d04 f2be
00000230: 1fe7 373d bbc3 debc e495 1bbe 7664 ae3c
00000240: 1120 fcbd 8831 e13d ca78 ae3c 50c5 febd
00000250: 4507 c23e 1f88 a13d c195 3dbe fe8a 81be
00000260: e382 3dbe 6936 e9be dc4a 13bf 5595 44be
00000270: 8f95 bdbe d8e1 5e3c 56f6 5abe b74d e33d
00000280: a44d 2c3d 9ac2 03bf c473 0dbf 3b83 a43d
00000290: 1643 48bd ab60 13be c61e 10be 80be da3d
000002a0: 6bf7 b4be 8bb6 513d 1e2a 3e3d c26a 72be
000002b0: bcdf 27be 4430 d83d 5881 2ebe 9491 35be
000002c0: eac5 893c 1044 f8bc fdd2 afbd f042 903d
000002d0: fd23 c2be c013 0bbe f175 73bd fa3a a5be
000002e0: aecf 4fbe 490f 063f 7efe c1bd 82cb 58bf
000002f0: caf5 d9bd a4b8 873c 7887 82bc 3548 133e
00000300: d9ed 83be e4f6 ca3b c49a c43d e4b6 81be
00000310: 92cd d23d d37a 2ebe bd0e 84bd 2563 b6be
00000320: df62 e0bd dbe2 7c3c d30a b7be 6ff3 573c
00000330: 5d67 94bd 71f8 5fbe 413a c4be 7c4f 18be
00000340: aa3e 93bc 5754 46be 6a24 eabd c320 09be
00000350: 2c51 933c 18cb e4bd be86 a9bd 9286 a9bc
00000360: 6366 ba3d 7360 afbc 446a 46bd e30c 95bd
00000370: 9abd 15be 59f9 f53d 75e3 60be e831 a4be
00000380: 777d 3fbe 5a13 a9bd 4ba5 3fbe 3773 1abe
00000390: 6a29 03bf 3ddd 09be b98e 28be c8d8 03be
000003a0: 6d54 3dbd 0638 943e c9b3 89be 9642 f7be
000003b0: 56b5 31bd 04b2 1f3d b415 bd3d 1bbc 4b3d
000003c0: 43cd 46be 14d5 453e e876 d13d 9a4f b6bb
000003d0: d54f d03e 3bc1 cc3d 8dc1 37be f1ae 72be
000003e0: e322 283e 2ef5 d2bd a127 5ebe 03da 86bc
000003f0: ad13 1e3d 5aae 4fbd 3603 6a3b 5d06 54bc

linear2.bias f4 [48]
-0.2774435 -0.2352748 -0.32264128 -0.073103465 -0.113065794 -0.18559766 -0.14588524 -0.0070812004
-0.014763827 -0.08116908 0.06973892 -0.0929182 0.0052679116 -0.05643054 -0.06650674 0.0459463
-0.33276448 -0.19986501 -0.28397694 -0.092848726 -0.18573357 -0.040202506 0.13822626 -0.11390239
-0.04586106 0.08536197 -0.104302794 -0.018956749 0.0012385638 0.025715707 -0.045419697 -0.1871755
-0.057327762 0.045871787 -0.095882125 -0.11513228 -0.16636918 0.023024043 0.042044193 -0.14487185
0.17612374 -0.0075914944 -0.08653314 -0.19096889 -0.00616406 -0.35701624 0.083560795 0.07672256
00000000: 130d 8ebe e1eb 70be 3d31 a5be 45b7 95bd
00000010: 0a8f e7bd 500d 3ebe f162 15be 6a09 e8bb
00000020: fbe3 71bc fa3b a6bd 47d3 8e3d e64b bebd
00000030: 729e ac3b b623 67bd b034 88bd 3032 3c3d
00000040: 1b60 aabe 6aa9 4cbe 6d65 91be 7927 bebd
00000050: f130 3ebe 62ab 24bd 2f8b 0d3e a845 e9bd
00000060: cfd8 3bbd 42d2 ae3d b49c d5bd 2f4b 9bbc
00000070: 4e57 a23a bfa9 d23c 010a 3abd efaa 3fbe
00000080: 84d0 6abd 0ee4 3b3d d95d c4bd 79ca ebbd
00000090: af5c 2abe eb9c bc3c 8836 2c3d 4959 14be
000000a0: c859 343e 12c2 f8bb 4938 b1bd 598d 43be
000000b0: e2fb c9bb d5ca b6be ec21 ab3d b820 9d3d

linear3.weight f4 [32, 48]
-0.17582598 -0.025579052 -0.09774381 -0.069691405 -0.16376238 -0.123233825 -0.2845848 -0.2966202
-0.19148372 -0.44021767 -0.26726812 -0.15116279 -0.27070376 -0.022228193 -0.19038507 -0.10468631
-0.24291489 -0.3157443 -0.31689897 -0.18747595 -0.09585969 -0.33180854 -0.32984918 -0.11171206
0.19065866 -0.3305713 -0.1581804 -0.34985012 -0.26552767 -0.27965593 -0.37447283 -0.114782006
-0.33080122 -0.29233223 -0.29713073 -0.3447911 0.22453834 -0.12509765 -0.122562155 -0.22572392
-0.14093061 0.38580996 -0.5024088 -0.20692134 -0.36160457 -0.1846756 -0.22187692 0.3790839
-0.15311208 -0.046763342 -0.075163275 -0.0076333093 -0.2315781 -0.24276301 -0.14604338 -0.15849067
-0.12891321 -0.40507546 -0.35585985 0.13651517 -0.0029208558 0.03486709 -0.14929731 -0.32859817
-0.21670333 -0.16772072 -0.2705732 0.055716153 -0.08341862 -0.012282582 -0.33712742 -0.002385612
0.0033223678 -0.43646866 -0.3315176 -0.2863494 -0.14168291 -0.3547779 -0.36707917 -0.19112039
-0.07256142 -0.2058299 -0.2779732 -0.3107725 0.318327 0.036115576 -0.14208043 -0.27125221
-0.0714041 0.16756727 -0.26454154 -0.20630017 -0.3912905 -0.10518189 -0.15752685 0.33198312
-0.091041826 -0.05784164 0.04256834 0.052682314 -0.05301529 -0.2043944 0.024447475 -0.017231232
0.027132876 0.12337104 -0.1702799 -0.12594557 -0.12090148 -0.3108598 -0.124638684 0.0034818912
0.072559424 -0.022133144 -0.05196102 -0.29198068 -0.086166345 -0.025355715 0.01816326 -0.16084917
-0.38342166 0.30574575 -0.103958614 -0.09241425 0.020225832 -0.096211694 0.1317098 -0.035053622
-0.060240377 0.027799668 0.12728502 0.010731382 -0.16083424 -0.07626704 -0.2203418 0.1411038
-0.18783645 -0.41472286 0.11583599 0.1599242 0.07836896 -0.122492835 -0.15241766 -0.448774
-0.35062712 -0.31689075 -0.5555493 -0.48108047 -0.6396901 -0.5833889 -0.46688232 -0.30244613
-0.41525194 -0.5702391 -0.7497093 -0.38140666 -0.37484387 -0.4932714 -0.538804 -0.747043
-0.432092 -0.37843293 -0.33472213 -0.5951032 -0.110494874 -0.65781146 -0.67516166 -0.50052655
-0.15883309 -0.22457714 -0.5527195 -0.46743134 -0.6805751 -0.4283915 -0.56820136 -0.40332764
-0.46733734 -0.3084941 -0.17183381 -0.398843 -0.36861804 -0.1564164 -0.5903781 -0.44582272
-0.6892111 -0.043723352 -0.3327383 -0.30864003 -0.3759048 -0.32344365 -0.60409856 0.050138738
0.14459716 -0.22228791 0.077978805 -0.13405015 0.0030342008 -0.12941445 0.054579113 0.061561294
-0.13639617 0.26206192 -0.016873483 -0.19870734 -0.12009183 -0.10027965 -0.089713074 -0.07763449
0.020167688 0.08577156 -0.07910425 -0.19196995 -0.028505066 0.11405687 -0.12213906 -0.11187095
-0.3047733 0.3413459 -0.017156033 -0.016131131 -0.13841414 0.031526532 0.2562165 -0.07074837
-0.15993667 -0.030392729 0.14710826 -0.008868362 -0.38833576 -0.12637892 -0.022298343 -0.05651888
-0.09198182 -0.34630132 0.020851364 0.17774643 0.14374994 0.12827107 -0.19622207 -0.53340846
0.14318807 -0.22133058 -0.11890873 -0.17515324 -0.05491954 -0.09291669 -0.07694632 0.06177405
-0.046569787 -0.07330252 -0.085843295 -0.23226494 -0.20939153 -0.17071976 0.018290292 -0.19337772
00000000: ba0b 34be 298b d1bc e82d c8bd 5eba 8ebd
00000010: 53b1 27be 0462 fcbd 19b5 91be 9ade 97be
00000020: 4f14 44be 3664 e1be 5ed7 88be 6bca 1abe
00000030: af99 8abe e617 b6bc 4ef4 42be c765 d6bd
00000040: aebe 78be 3da9 a1be 9540 a2be b2f9 3fbe
00000050: 1652 c4bd cfe2 a9be fee1 a8be 4bc9 e4bd
00000060: 063c 433e a440 a9be 0bfa 21be 8e1f b3be
00000070: 3ef3 87be 102f 8fbe e7ba bfbe d412 ebbd
00000080: c75e a9be 92ac 95be 8521 98be 7688 b0be
00000090: 61ed 653e 9919 00be de01 fbbd 2c24 67be
000000a0: 1d50 10be e288 c53e dd9d 00bf 30e3 53be
000000b0: 3c24 b9be 9a1b 3dbe b433 63be 4917 c23e
000000c0: 6ac9 1cbe eb8a 3fbd 34ef 99bd d720 fabb
000000d0: cf22 6dbe de96 78be 658c 15be 614b 22be
000000e0: d301 04be 0d66 cfbe 4333 b6be a2ca 0b3e
000000f0: d46b 3fbb cbd0 0e3d 65e1 18be 053e a8be
00000100: 7ae7 5dbe fbbe 2bbe 9288 8abe 9f36 643d
00000110: 62d7 aabd e23c 49bc f79b acbe ee57 1cbb
00000120: 15bc 593b d278 dfbe adbc a9be 639c 92be
00000130: 5315 11be 73a5 b5be cdf1 bbbe 10b5 43be
00000140: 159b 94bd 13c5 52be 8152 8ebe 931d 9fbe
00000150: c2fb a23e eded 133d 887d 11be 92e1 8abe
00000160: 503c 92bd c196 2b3e fd71 87be 5a40 53be
00000170: 3a57 c8be 9a69 d7bd b84e 21be b1f9 a93e
00000180: 2374 babd 5beb 6cbd 245c 2e3d 69c9 573d
00000190: 9026 59bd c44c 51be 1246 c83c 8328 8dbc
000001a0: c445 de3c f5a9 fc3d db5d 2ebe e0f7 00be
000001b0: 329b f7bd 0429 9fbe 9142 ffbd 7130 643b
000001c0: 099a 943d 9150 b5bc 14d5 54bd 7e7e 95be
000001d0: fb77 b0bd cab6 cfbc 1ecb 943c a5b5 24be
000001e0: d84f c4be b58a 9c3e 41e8 d4bd af43 bdbd
000001f0: a5b0 a53c a30a c5bd efde 063e 6394 0fbd
00000200: 9dbe 76bd 21bc e33c 0157 023e aed2 2f3c
00000210: bbb1 24be e531 9cbd 48a1 61be 847d 103e
00000220: 3358 40be 8e56 d4be 6b3b ed3d 2bc3 233e
00000230: e87f a03d 86dd fabd 6013 1cbe b5c5 e5be
00000240: 6685 b3be 813f a2be 7b38 0ebf 2e50 f6be
00000250: bbc2 23bf fa58 15bf 330b efbe 38da 9abe
00000260: e79b d4be 31fb 11bf f3ec 3fbf bc47 c3be
00000270: 89eb bfbe 128e fcbe 0fef 09bf 363e 3fbf
00000280: 2a3b ddbe f6c1 c1be b360 abbe af58 18bf
00000290: 234b e2bd 5566 28bf 65d7 2cbf 8222 00bf
000002a0: 24a5 22be 8df7 65be 067f 0dbf 2953 efbe
000002b0: 2b3a 2ebf 2156 dbbe a575 11bf f680 cebe
000002c0: d746 efbe f0f2 9dbe 34f5 2fbe 2635 ccbe
000002d0: 81bb bcbe 9f2b 20be 0523 17bf e042 e4be
000002e0: 2370 30bf 4217 33bd ad5c aabe 1106 9ebe
000002f0: 9876 c0be 689a a5be 34a6 1abf 475e 4d3d
00000300: 4711 143e 719f 63be 5ab3 9f3d 7144 09be
00000310: 71d9 463b 3985 04be 598e 5f3d b227 7c3d
00000320: 70ab 0bbe fb2c 863e 423a 8abc f079 4bbe
00000330: b5f2 f5bd 6b5f cdbd 7dbb b7bd d5fe 9ebd
00000340: b536 a53c 00a9 af3d 6901 a2bd c593 44be
00000350: 7583 e9bc a696 e93d 0b24 fabd 991c e5bd
00000360: 3f0b 9cbe e4c4 ae3e cf8a 8cbc 6f25 84bc
00000370: 70bc 0dbe f721 013d cf2e 833e 85e4 90bd
00000380: 70c6 23be 2cfa f8bc 8ca3 163e 9b4c 11bc
00000390: f2d3 c6be 7a69 01be 04ab b6bc 5780 67bd
000003a0: f760 bcbd 684e b1be 7bd0 aa3c 2903 363e
000003b0: 2f33 133e 7e59 033e 70ee 48be 758d 08bf
000003c0: e59f 123e 7ca4 62be 6c86 f3bd 5f5b 33be
000003d0: 50f3 60bd 1b4b bebd 0896 9dbd c906 7d3d
000003e0: f6bf 3ebd a21f 96bd 9cce afbd dcd6 6dbe
000003f0: bc6a 56be 29d1 2ebe 86d5 953c cf04 46be

linear3.bias f4 [32]
-0.16425854 -0.27207112 -0.051062413 -0.6945219 0.026568005 -0.15716866 -0.016459651 -0.6404024
-0.2232561 -0.49333704 -0.041144714 -0.7104939 -0.03287093 -0.74346864 -0.680433 -0.66905916
-0.05075635 -0.6212654 -0.71713173 -0.25769904 -0.31173643 -0.084944636 -0.5801047 0.009043659
-0.2465982 -0.23255719 -0.06396822 -0.7295291 -0.6108837 -0.65977615 -0.5344985 0.06141266
00000000: 6433 28be e84c 8bbe d226 51bd 30cc 31bf
00000010: 25a5 d93c d2f0 20be 64d6 86bc 69f1 23bf
00000020: 3f9d 64be ac96 fcbe 5c87 28bd eee2 35bf
00000030: aba3 06bd f653 3ebf db30 2ebf 7647 2bbf
00000040: e4e5 4fbd 400b 1fbf f295 37bf 21f1 83be
00000050: eb9b 9fbe 74f7 adbd be81 14bf db2b 143c
00000060: 3d84 7cbe 7923 6ebe c501 83bd 6bc2 3abf
00000070: e062 1cbf 17e7 28bf e5d4 08bf d78b 7b3d

linear4.weight f4 [2, 32]
-0.062857755 -0.074084744 0.11755199 -0.09996695 0.10053387 0.15905459 0.12830094 -0.06017175
0.13252012 -0.088550985 0.024480537 -0.0032172818 -0.05845338 0.036722958 -0.13986939 -0.08356935
-0.019177608 0.07723181 -0.11379578 -0.0118878465 0.11380075 0.10554867 -0.038292255 0.0016288928
0.12160864 0.05262774 0.16823786 0.060241476 0.098496236 -0.006339829 0.013998461 0.1002027
0.012619533 -0.010888867 0.046191096 0.091529064 0.10993076 0.01119249 0.031272553 0.04559278
-0.04413285 0.07465423 0.097698264 -0.054555494 -0.022973236 -0.049845573 0.1337855 0.071040645
0.099375896 -0.07815445 0.10077147 0.13049415 -0.11519112 0.06443385 0.011973657 0.15122572
-0.14345953 0.04905871 0.07452955 -0.06434517 -0.13346751 -0.055523224 -0.06299342 0.18819796
00000000: 91bb 80bd beb9 97bd 19bf f03d 79bb ccbd
00000010: b4e4 cd3d 35df 223e 5261 033e a776 76bd
00000020: 5bb3 073e 385a b5bd 688b c83c 08d9 52bb
00000030: d06c 6fbd d06a 163d ec39 0fbe 6826 abbd
00000040: 5c1a 9dbc b62b 9e3d c30d e9bd 3ec5 42bc
00000050: 5e10 e93d e729 d83d 57d8 1cbd 9380 d53a
00000060: f30d f93d 2f90 573d 8c46 2c3e c4bf 763d
00000070: 65b8 c93d 57be cfbb cd59 653c 1337 cd3d
00000080: 28c2 4e3c 3867 32bc e032 3d3d 9773 bb3d
00000090: 6123 e13d b560 373c a617 003d 7fbf 3a3d
000000a0: a6c4 34bd 51e4 983d 0716 c83d 9575 5fbd
000000b0: 5e32 bcbc df2a 4cbd 11ff 083e c27d 913d
000000c0: 9785 cb3d 710f a0bd 4661 ce3d 42a0 053e
000000d0: 52e9 ebbd e5f5 833d 282d 443c eada 1a3e
000000e0: 0ee7 12be c9f1 483d f3a2 983d 67c7 83bd
000000f0: b5ab 08be 526c 63bd b202 81bd f7b6 403e

linear4.bias f4 [2]
-0.06533469 -0.048847716
00000000: 32ce 85bd 8b14 48bd
