MODEL_CHECKPOINT.3764827.actor_target_right.pt (torch_old, 22033 bytes, 8 tensors)

linear1.weight f4 [48, 24]
000000 79 a9 d5 3d d0 66 af 3e 79 40 20 bd 50 fa 2f 3f
       0.10432715 0.34258127 -0.039123986 0.6874132
000010 a9 34 cf 3d 62 19 c8 3e 9a ec 57 be 05 33 c6 3e
       0.10117466 0.39081866 -0.2108635 0.387108
000020 4c 44 20 3e 90 65 b3 3e 21 3f 9b 3e 1f 58 f7 3d
       0.15651053 0.35038424 0.303216 0.12077355
000030 3d 44 8f be 9d b9 a8 3e bd 7b 27 3e f7 66 ba 3e
       -0.2798175 0.32954112 0.16355796 0.3640668
000040 f7 86 a5 3d b3 e1 d6 3e 3a 8c 81 3e a4 3c 20 3e
       0.08082383 0.4196907 0.25302297 0.15648133
000050 45 e9 20 be 45 0c 9f 3e 02 a1 15 3d ee 47 b9 3e
       -0.15713985 0.31064048 0.036530502 0.3618769
000060 cc a1 c1 3d 43 b7 c5 be 37 16 59 3e 03 ca 98 be
       0.094546884 -0.3861638 0.2119988 -0.29841623
000070 0b bf 48 bf c0 d3 70 be 8f 2d 2f be 40 61 8b bd
       -0.7841651 -0.23518276 -0.17107223 -0.06805658
000080 f6 fe fa bb e9 e5 d6 be 76 02 17 be 54 50 e2 3c
       -0.0076597882 -0.41972283 -0.14747033 0.027626194
000090 4a 78 8e bf 4e b7 70 bc 5b c8 40 3e 94 86 5b 3d
       -1.1130459 -0.014692141 0.1882643 0.05359514
0000a0 40 2f 43 bc fb 43 da be 2e 98 dd bc 12 7e 11 3d
       -0.011913121 -0.4262999 -0.027050104 0.03552062
0000b0 0c 43 ad bf fd 45 86 bd 51 9c a5 3c e5 fb ac 3e
       -1.3536086 -0.06556318 0.020216139 0.3378593
0000c0 5c e5 22 3b ba 6a 8f bf d9 4b 63 3d 2b 38 08 bd
       0.0024855947 -1.1204445 0.055492256 -0.03325669
0000d0 70 01 71 3e 6a 44 06 3f d6 af db bd 63 fb ec 3d
       0.23535705 0.5244814 -0.107268974 0.11571386
0000e0 b5 e9 4b be f2 d8 90 bf a6 a8 4d be 71 01 d9 3e
       -0.19913371 -1.1316206 -0.20083866 0.42383912
0000f0 e1 cd dc 3d b4 19 21 3f 03 b1 02 3e 16 a6 be 3e
       0.10781456 0.62929845 0.12762837 0.3723609
000100 b8 e3 42 bd d0 7c 5f bf 4d b4 05 3e 5e 09 0f 3f
       -0.04758045 -0.87299824 0.1305706 0.5587367
000110 ac b5 d3 3d dc 27 46 3f 02 09 57 be 3a ed 2b 3f
       0.103373855 0.7740457 -0.2099953 0.67158854
000120 9d 2f a0 be 95 f8 2c 3e 19 f4 bc 3c 0c 6d b0 be
       -0.31286326 0.16891702 0.023065614 -0.34458196
000130 2a 41 72 3c f1 0a 1c 3e 3d 28 65 be c7 32 5f be
       0.014786044 0.15238549 -0.22378631 -0.21796714
000140 2b d0 98 be c0 3b 24 be b9 7d 85 3e ac 78 dd be
       -0.2984632 -0.16038418 0.2607248 -0.43256128
000150 5f b8 1a be d1 be 83 3e 24 ec 02 3e 6d 42 15 be
       -0.15109394 0.2573152 0.12785393 -0.1457612
000160 14 04 c9 3c 2b 91 64 bd 04 1c a1 3e 90 0f 2f bf
       0.024538077 -0.055802505 0.31466687 -0.6838312
000170 b1 0f 18 be d2 f5 74 3d 20 67 80 3e c7 7d 45 bf
       -0.14849736 0.059804745 0.25078678 -0.77145046
000180 02 10 ef bc 44 29 12 be 67 aa 19 be 3c 03 b8 3e
       -0.029182438 -0.14273554 -0.1500641 0.35939968
000190 14 0f a1 be fa d0 d2 3e ea 09 fb bd 78 b4 cb 3e
       -0.31456816 0.4117506 -0.1225775 0.39786124
0001a0 91 be d5 be c1 b5 ec bd 08 de b5 bd ee 8f 88 bd
       -0.41746953 -0.11558104 -0.0888024 -0.066680774
0001b0 54 8d dc be 29 fc 84 3e 51 13 7b 3d 91 80 25 bd
       -0.43076575 0.25973633 0.06129772 -0.040405814
0001c0 a5 b3 dc be f8 cc 68 bc 0e 33 e8 bd 37 25 20 be
       -0.43105808 -0.014209025 -0.11337863 -0.15639196
0001d0 82 c2 42 bf 2d 9e 93 3e a5 88 e4 3d 31 1e 14 be
       -0.76078045 0.28831616 0.111588754 -0.14464642
0001e0 66 76 c2 3c 5a 4a d7 be 93 3f 1e bd 12 45 df 3d
       0.023738097 -0.42048913 -0.038634848 0.10901846
0001f0 a8 9d 16 be 04 c1 0e 3e cc 7e bb bd 14 1b 2d 3e
       -0.14708579 0.13940817 -0.09155044 0.1690486
000200 b7 9b 70 be 5d 87 6a be 84 a6 63 3d 9e 4f 2a 3e
       -0.234969 -0.229032 0.055578724 0.16631934
000210 0e 7c da bd 62 9e 8f 3d a4 58 5a bd 28 85 ad 3d
       -0.10668193 0.07012631 -0.05330719 0.08472663
000220 04 04 c8 3d fd f3 17 bd ea 4d 15 3f 1d d5 8a 3d
       0.09766391 -0.03709792 0.5832201 0.067789294
000230 69 08 83 be e8 b5 97 3e 6a 0f a5 3e d9 48 b6 3d
       -0.25592354 0.2963097 0.32238322 0.08900613
000240 e8 01 17 bd 20 73 fd be 7d 9e 85 3e 63 ab ac 3e
       -0.036867052 -0.49501896 0.2609748 0.33724508
000250 96 38 1b 3e 28 4c 4a be de 25 87 3e 48 c2 86 3e
       0.15158305 -0.19755614 0.26396078 0.263201
000260 3e ea fd 3d c2 f7 f0 be 9f 27 35 bd af 7e 83 3e
       0.12398194 -0.47064024 -0.04422724 0.2568259
000270 23 60 95 be 54 c7 ca 3d c1 7d 0f 3c 3b 6a 2a 3e
       -0.2917491 0.099013 0.008758009 0.16642086
000280 63 2f 87 be c2 bc 70 be 0a 56 71 bd 6c 4c 0c 3f
       -0.2640334 -0.23509505 -0.058919944 0.5480411
000290 5d 2f 3d 3c 65 cc 13 3e 62 e6 30 3e 77 b8 0a 3f
       0.011546937 0.14433439 0.17275384 0.5418772
0002a0 87 fa 14 bd 1b c0 a7 be e8 92 9a be ff 7e 2f bc
       -0.036371734 -0.32763752 -0.30190206 -0.010711431
0002b0 90 63 22 be dc f6 f7 3e 7b 17 ab bd b1 b1 ba bd
       -0.15858293 0.48430526 -0.08354088 -0.09115923
0002c0 24 70 6c bd cd 00 90 be 02 18 61 3e 75 50 60 3e
       -0.057724133 -0.2812561 0.21981815 0.21905692
0002d0 23 67 9b be 25 47 1d 3f b5 33 ad 3e a1 6d 8e 3e
       -0.30352125 0.6143668 0.33828512 0.27818015
0002e0 fb b6 d4 bc f7 62 ad be 3f b3 1f 3d 28 81 41 be
       -0.025966158 -0.33864567 0.0389893 -0.18896925
0002f0 2a 17 df bd c4 90 05 3f 9d 3c 18 3e 14 c8 8b 3c
       -0.1089309 0.5217402 0.14866872 0.017063178
000300 74 53 18 3d 26 f9 04 bf 86 0e 27 3d b1 34 04 bc
       0.037188962 -0.5194267 0.040785335 -0.008069203
000310 fc 3a ba 3e d7 3e 2e 3e 6f 28 3a bd 95 27 5c 3e
       0.36373127 0.17016159 -0.045448717 0.21499474
000320 22 b9 99 3d 2d 75 ed be 63 f0 54 3e 40 9d ac 3e
       0.075060144 -0.4637846 0.20794825 0.33713722
000330 a8 9a 17 3e d3 89 2b 3f 59 28 9b 3d cb 00 06 3f
       0.1480509 0.6700718 0.07576055 0.5234496
000340 d4 15 81 3e 27 1c 0a bd 0b b7 cc 3e 20 85 f8 3e
       0.25211966 -0.033718254 0.399834 0.48539066
000350 14 06 88 3e 19 1e 20 3f 09 e9 90 3d 74 80 55 3e
       0.26567137 0.62545925 0.07075698 0.20849782
000360 06 e1 da 3d ed ea 32 3d 4c 79 80 3e 4a 36 1e 3e
       0.10687451 0.043681074 0.25092542 0.15450397
000370 c4 75 4e 3f 22 24 d9 bd ee 5b bd bd 7e 89 92 3e
       0.80648446 -0.10602595 -0.0924605 0.28620523
000380 02 c8 ed 3c 69 ab 22 3e 31 16 23 bd 0b ed 3f 3e
       0.029026035 0.158857 -0.039816085 0.18742768
000390 ea 1c 93 3f 0c 53 6d 3e 3b a1 a6 bd c1 fd 52 3e
       1.1493199 0.23176211 -0.08136221 0.20604612
0003a0 5d cc 2b 3e f3 6a ac 3e 66 ab 7f bd d8 e0 86 be
       0.16777177 0.33675346 -0.062419318 -0.26343417
0003b0 48 da 88 3f 0e ed bb 3e 1e 03 33 3e 08 59 bc be
       1.0691614 0.36704296 0.17481658 -0.36786675
0003c0 35 78 5a be 17 63 2a 3f bc 2a 64 3e 91 a6 19 3e
       -0.21334918 0.6655745 0.22281927 0.15004946
0003d0 68 03 42 3e d7 12 d1 be 1b c9 02 be 3c dd 19 be
       0.18946612 -0.40834686 -0.12772028 -0.150258
0003e0 7e 61 18 3e ed a8 05 3f ed 9e 14 3e fe d6 07 be
       0.1488094 0.52210885 0.1451375 -0.13265607
0003f0 15 a7 e0 3e 77 bb 86 be 5b 1c dd 3d 67 30 4f 3c
       0.43877473 -0.263149 0.10796424 0.012645817

linear1.bias f4 [48]
000000 98 f4 88 3d ec 32 50 bd 15 68 96 3e d4 52 cb 3e
       0.066872776 -0.050829813 0.29376283 0.3971163
000010 47 b0 e2 3d d9 91 bf 3d ea b2 05 bd 0f c1 9a 3d
       0.110687785 0.0935399 -0.03264133 0.07556354
000020 ac 2e 9c 3d 07 8c 8d 3d bf 2f 83 be d7 26 f7 bd
       0.076260895 0.06911474 -0.25622365 -0.12067955
000030 4c c9 fe bd ee e6 3b be 5c fa 02 bd 74 3f 7d bd
       -0.12440738 -0.18349811 -0.031977043 -0.06182809
000040 d0 7d 78 bc 21 f7 e4 3d a7 34 38 be dc 31 c8 3e
       -0.015166715 0.111799486 -0.17988835 0.3910054
000050 a9 2f ce 3e 92 fe 83 bd 44 87 66 bd a6 61 df 3d
       0.40270737 -0.0644504 -0.056281343 0.10907297
000060 09 f9 bf bd ff 4d de 3d fa f7 09 3e 4e e3 08 be
       -0.093736716 0.1085472 0.13473502 -0.1336796
000070 2f 6b da bd 70 30 dd 3c f3 c6 b1 be 45 da 5c 3c
       -0.10664975 0.027000636 -0.347221 0.013479774
000080 14 df 85 3e 20 b9 0b 3d 0f 3d e0 3d af 36 7e 3d
       0.26146758 0.034112096 0.10949146 0.06206387
000090 42 4d 81 bd ca ac 89 3e ee df af 3e 26 cc 64 3e
       -0.06313564 0.2688964 0.34350532 0.22343501
0000a0 e0 3a 29 3e f3 bc b4 3e a5 1a 15 be ac 41 88 be
       0.16526365 0.35300407 -0.14560945 -0.26612604
0000b0 ad be 10 bd 82 a7 dd bd 50 c2 7d 3d 24 31 37 be
       -0.035338093 -0.10822965 0.06195289 -0.1788984

linear2.weight f4 [48, 48]
000000 ec 86 92 3d d2 2f cb 3e af b4 af 3e 56 d6 48 3e
       0.071546406 0.39684922 0.34317538 0.19613013
000010 94 ac a2 3e 30 cd 35 3e ca bc 05 3e 0e 18 33 3e
       0.31772292 0.17754054 0.13060299 0.17489645
000020 ad 2a 57 bd 7b c4 4c bf f9 43 37 be c4 b8 8d be
       -0.052530933 -0.79987305 -0.17897023 -0.27680027
000030 4c 32 c9 be 72 16 05 be c8 fd 18 3e 05 8b 56 bf
       -0.39296186 -0.12996843 0.1494056 -0.83805877
000040 dc 85 c6 3e 96 62 bb 3d 83 6f f2 3d 4f 6c 4e 3e
       0.38774002 0.09149663 0.118376754 0.20158504
000050 ea b5 7a 3e aa 38 5b be 88 f1 c0 bd 15 ad 44 be
       0.24483457 -0.21408334 -0.094210684 -0.1920665
000060 ad e9 b9 be 3c b9 bb 3d 1c e9 37 bf 4c 01 0f bc
       -0.36311093 0.0916619 -0.7184007 -0.008728337
000070 61 0b 0f bf ba be 40 3e d0 4e a5 be 1d a1 92 3e
       -0.5587674 0.18822756 -0.32286692 0.28638545
000080 3c 02 3a be 5a 88 31 bf 3f 8a ad be 2c 0f 75 bd
       -0.18164915 -0.6934868 -0.33894536 -0.059828922
000090 b5 ce a2 be 41 0d 43 bc 25 5a 69 3c 3f ce dc 3d
       -0.3179833 -0.011905015 0.014242684 0.10781526
0000a0 6d 4a 8a 3e 25 90 16 3e ce a2 55 3c 98 ef ae 3e
       0.27009907 0.14703424 0.013039304 0.3416717
0000b0 b5 1b cb 3e 2d e1 8f be 31 89 d4 3e 3c eb 52 3d
       0.39669576 -0.28101483 0.4151092 0.05149387
0000c0 64 f7 78 be 35 37 ec be fe f4 ad be 1d 69 a3 3c
       -0.24313122 -0.4613587 -0.33975977 0.019947583
0000d0 67 11 09 be c6 fe b3 bd a9 98 d8 3c 08 f8 fd bd
       -0.13385545 -0.087888286 0.026439982 -0.12400824
0000e0 c1 24 82 be 9e de 92 3e 55 ba c3 3e 07 79 ef 3e
       -0.25418666 0.28685468 0.38228098 0.46772024
0000f0 3f a3 c1 3e 20 01 89 3e b0 9f 16 be fc 9a 14 3f
       0.3781986 0.2675867 -0.14709353 0.5804899
000100 e8 5b c2 be c8 21 4b be d9 76 fe bd b7 96 f4 3a
       -0.37960744 -0.19837105 -0.12425012 0.0018660639
000110 97 ef 80 be b3 69 2b 3e 61 b9 ae 3e 8f 23 4e 3e
       -0.25182793 0.1673954 0.34125808 0.20130752
000120 32 0d e7 3e 8e d4 8a bd a4 5e dd 3e 4e 6d 00 bd
       0.45127255 -0.06778823 0.43236268 -0.03135424
000130 9f b2 83 3f 61 81 a6 be 2e 0a 02 3d 63 cd 02 be
       1.0288886 -0.32520583 0.03174799 -0.12773661
000140 0c 5f 34 3e 5e 24 6f 3e 47 5d aa 3e 03 fd 4b 3e
       0.17614383 0.23353717 0.3327429 0.19920735
000150 d3 ae 47 3e 09 d4 55 3e 08 4a a9 bd 41 19 fc 3d
       0.19500284 0.20881666 -0.082660735 0.12309504
000160 aa cc 72 bd 50 8f 49 be 86 ed 8e 3e 06 c8 48 be
       -0.059277214 -0.19683576 0.2791559 -0.19607553
000170 3f 35 84 3c aa af 08 3f ad 39 db be 2c 4f 99 be
       0.016138671 0.5339304 -0.4281744 -0.29943216
000180 90 73 ee bd 93 f2 42 bf 5a 91 9b be 5a a1 eb bd
       -0.116431355 -0.7615139 -0.30384332 -0.11505385
000190 d3 5f b2 be c7 24 da 3d 63 15 55 be fe 57 e8 bd
       -0.34838733 0.10651546 -0.2080894 -0.11344908
0001a0 4c b2 9a 3d 7e c3 77 3f 85 f0 ca 3d b2 ce 3b 3e
       0.07553539 0.9678267 0.09909157 0.18340567
0001b0 9e c2 0c 3f 62 24 6d be 41 20 d0 bd f1 14 63 3f
       0.5498446 -0.2315841 -0.10162402 0.8870383
0001c0 a4 d7 21 bf 3d 96 67 bd 03 0b be be 6c 65 ed be
       -0.63219666 -0.056539763 -0.37117776 -0.4636644
0001d0 cd 5f c4 be 9c 2e a0 3e 82 41 0a 3e fa 3b 18 3e
       -0.3835434 0.3128556 0.13501552 0.14866629
0001e0 45 81 9f 3e 8e 6f 27 bb 50 28 4f 3f 3b 05 85 3e
       0.31153312 -0.002554867 0.80920887 0.25980553
0001f0 05 ef d0 3d 4e d5 e1 be 19 9b 31 3e ae ef b0 be
       0.10201839 -0.4410805 0.17344321 -0.3455786
000200 f2 0c 49 3e 53 d9 2f 3f c7 5d d2 3e 46 ad 21 3c
       0.19633844 0.68690985 0.4108717 0.009867972
000210 fe 7b b4 3e 78 39 29 be 23 09 b8 bd 2f 6e 20 be
       0.3525085 -0.16525829 -0.08986118 -0.15667032
000220 c9 ab bb be e1 50 9b bd 4f d8 b8 bd 11 35 1e bf
       -0.366545 -0.07583786 -0.090256326 -0.6179972
000230 78 87 a0 be 38 99 98 3e e7 66 09 bf d2 c8 d1 bd
       -0.31353354 0.29804397 -0.5367264 -0.102433816
000240 e0 b6 21 3d 6c 64 18 3f 00 7e 3e 3e 2a f5 8c 3e
       0.039481044 0.5952823 0.18602753 0.27530795
000250 47 95 87 3e a7 45 af 3d e5 3b 83 3e 35 6e 5d 3e
       0.26481077 0.08558207 0.25631633 0.21624072
000260 68 e8 fd ba 35 f7 51 bf d0 92 83 be 44 74 d0 be
       -0.0019371631 -0.82017833 -0.25697947 -0.40713704
000270 7e bf 0a bf d3 7f 16 3d 8d ef 95 3e 0e 44 59 bf
       -0.54198444 0.036742996 0.29284325 -0.8486947
000280 f2 eb 96 3e e7 a9 a2 3e fd af 99 3e e0 cf ab 3e
       0.29476887 0.3177025 0.3001708 0.33557034
000290 69 9c f0 3e cd a0 d2 be 25 aa 5b be dd 3e 5b be
       0.4699433 -0.41138306 -0.21451624 -0.21410699
0002a0 e8 4c bc be 8a a8 61 3e 73 52 55 bf ab 2b 39 be
       -0.36777425 0.22036949 -0.8332893 -0.18083064
0002b0 26 4a 06 bf 50 0e d9 3d 6e 1d 97 be 0c 3d 7c 3e
       -0.5245689 0.10598433 -0.2951464 0.24632663
0002c0 82 d2 d3 bd 35 43 fc be 92 c3 97 be a8 a7 e6 bd
       -0.103428856 -0.49270025 -0.29641396 -0.11262447
0002d0 c5 d6 0f be d6 cd b2 3d 14 9e 7a ba 08 31 04 3c
       -0.14046772 0.08730666 -0.00095602986 0.008068331
0002e0 67 14 98 3e 04 1a e2 bd 75 f1 dd bd d7 33 fb 3e
       0.29703066 -0.11040118 -0.1083707 0.49062988
0002f0 c6 6a 64 3e e5 16 cc be e1 1e c5 3e 0c af 77 3d
       0.22306356 -0.39861217 0.3850012 0.060469672
000300 36 de 03 be e9 47 15 bf 92 ad 9e be 9c cd 12 be
       -0.12877735 -0.5831285 -0.309918 -0.14336246
000310 ed 63 a6 be 40 79 60 bd 2a 3d 9e be 9d f8 27 be
       -0.32498112 -0.054803133 -0.3090604 -0.16403432
000320 ad 68 02 3e b8 ba 5b 3f 15 8d 0a 3e 91 7f 3d 3e
       0.12735243 0.85831785 0.13530381 0.18505694
000330 36 ea 19 3f da 1d 9b bc fe ba a9 be 80 7e 34 3f
       0.60123 -0.018935133 -0.33150476 0.70505524
000340 28 23 d2 be 06 7c 78 be 1d 92 a4 be fc 90 a5 be
       -0.41042447 -0.24266061 -0.32142726 -0.32337177
000350 33 b0 ee be 9b a0 ae 3e f1 6b 8c 3e 10 6e f7 3c
       -0.46618804 0.34106907 0.27426103 0.03020385
000360 d5 c7 97 3e 47 e2 37 be bb ea 6a 3f 5b 49 8b 3e
       0.29644647 -0.17957412 0.9176442 0.27204403
000370 63 fb ad 3e ee 10 51 be 67 c1 83 3e 21 c5 92 be
       0.33980855 -0.20416614 0.25733492 -0.28666022
000380 c9 39 88 3e c0 3a 10 3f 69 c3 b0 3e 12 0c c9 3d
       0.26606587 0.56339645 0.34524086 0.09816755
000390 e3 04 89 3e 95 7a 5a bb e9 e2 a9 3d cb 0d 11 be
       0.2676154 -0.0033337225 0.08295233 -0.14165418
0003a0 67 f3 24 be ae 79 46 be 32 d9 23 3c 4c 05 ac be
       -0.16108476 -0.19382355 0.010000514 -0.3359779
0003b0 47 27 d4 be da 1f b3 3e 2a 54 23 bf 62 85 11 be
       -0.41436216 0.34985238 -0.638003 -0.14211038
0003c0 f0 1b 3c bd 0c ea 1f 3f de a9 35 3e 1f 5b c8 3d
       -0.04592508 0.624665 0.1774058 0.09783005
0003d0 ee 40 10 3e 7c 6d 12 bc 03 be 01 3e ec 92 6d 3e
       0.14087269 -0.008937236 0.1267014 0.23200577
0003e0 8c 93 8a bb ce e4 61 bf 38 21 b7 bd 59 1a 62 be
       -0.0042290147 -0.88239753 -0.08941883 -0.22080363
0003f0 44 f1 23 bf cb f2 15 bd 6d d6 87 3e 72 51 43 bf
       -0.6404002 -0.0366085 0.2653078 -0.7629615

linear2.bias f4 [48]
000000 fd 2d bb bd 89 e9 58 be 1f 00 e5 3d 33 28 7a bd
       -0.09139631 -0.21182837 0.11181664 -0.061073493
000010 b3 f5 fd bd 0d dd 14 bd c8 0e e8 3d dc 4b 98 be
       -0.12400379 -0.036343623 0.11330944 -0.29745376
000020 76 e4 57 bd 95 d3 52 3e f4 e5 88 bd 93 56 4d bd
       -0.05270811 0.20588525 -0.06684485 -0.05013139
000030 10 10 63 be 8d 56 59 3d dd 0b 48 3e e7 23 b9 bd
       -0.22174096 0.053061057 0.19535775 -0.09040051
000040 ba 45 57 3d 71 89 f5 bd a2 ed 42 bc d5 48 07 3e
       0.05255673 -0.119891055 -0.011897476 0.13211377
000050 39 a6 47 bd 3f 7a ed 3d 03 bd bb bd bc 54 3b bd
       -0.048742507 0.11595582 -0.091669105 -0.045735106
000060 95 a3 cc 3c 81 ae 90 3d 9b 31 27 be 5d e0 48 bd
       0.024980346 0.07064534 -0.16327517 -0.049042094
000070 54 31 94 3c 4a 69 e1 bd eb 04 52 bd 4c 10 b6 3c
       0.018089928 -0.110064104 -0.05127422 0.022224568
000080 04 54 17 be 36 84 6a bd 95 18 df bd ca 8a b6 3c
       -0.14778143 -0.057254992 -0.108933605 0.022282977
000090 4a ba c1 bd c3 e4 01 3d 61 09 88 bd 56 0d 53 bc
       -0.0945936 0.031712305 -0.06642414 -0.0128815975
0000a0 e3 15 82 be 0b f5 3d bd d5 94 09 3c fc 74 08 be
       -0.25407323 -0.04637627 0.008397301 -0.13325876
0000b0 5b ff 80 3d b6 f4 e4 bd d2 2f 4a be 85 e9 bf bd
       0.06298705 -0.111794874 -0.19744805 -0.09370712

linear3.weight f4 [32, 48]
000000 b8 19 21 bf 5d 66 8e 3d ee 1e 01 3f 4f c8 26 bf
       -0.6292987 0.06953118 0.5043782 -0.65149397
000010 62 12 1a 3f 75 fe 46 bf 95 6d 39 be 67 9f 02 3e
       0.601843 -0.7773202 -0.18108208 0.1275612
000020 20 77 c6 3e be 20 0e be 57 91 3a 3e 4d fe 2d bf
       0.3876276 -0.13879678 0.18219505 -0.6796616
000030 54 42 16 3e 4f 2c 97 be 10 6d 90 be 9a bb 40 bf
       0.1467374 -0.29525992 -0.28208208 -0.7528626
000040 e0 3a f8 be e3 d3 74 3e c7 10 eb 3d 30 cc 91 3e
       -0.48482418 0.23908953 0.114778094 0.28476095
000050 1a 3e 1f bf b7 cb 03 be 95 57 ed be 88 27 16 3e
       -0.62204134 -0.1287068 -0.46355882 0.14663517
000060 0c 55 a4 3e 36 33 df 3e ab 38 7f 3e 49 96 0b bf
       0.32096136 0.43593758 0.24923961 -0.5452619
000070 69 36 d1 be 7d 22 ab 3d 01 5c 53 be 51 96 ce 3e
       -0.40861824 0.083561875 -0.20640565 0.40349057
000080 bc a4 5a bd 0d dd 28 bf 6f 78 01 3e 12 39 12 bf
       -0.05337976 -0.65962297 0.12643598 -0.5711833
000090 fe 84 63 3e fd 32 a7 3e 42 fd d8 3e 0b 9d d0 be
       0.22218701 0.32656088 0.4238072 -0.40744814
0000a0 33 3c 69 3e 9f 1c 86 3e dc 8c a0 3e 7d 90 d7 3e
       0.2277687 0.2619371 0.31357467 0.42102423
0000b0 8c 0b ce 3e 6a 33 ab 3e 6f 9c 19 3e 14 cc b2 3e
       0.40243185 0.33437663 0.15001081 0.34921324
0000c0 1c 7a 08 3f 80 39 c6 3b b6 13 2b bf cc a4 37 3f
       0.53311324 0.006049335 -0.6682695 0.71735835
0000d0 7d db aa be f1 7b 0b 3f 51 b4 f0 be f9 3c 0b 3e
       -0.3337058 0.54485995 -0.4701257 0.13597478
0000e0 75 f1 07 bf c7 15 1b bf b7 a2 b4 be f3 0e 2c 3f
       -0.5310281 -0.60580105 -0.35280392 0.6721031
0000f0 f0 da f8 3d 3b 01 32 3e be 0a 1d be 39 2d 3f 3f
       0.12151134 0.17383282 -0.15336129 0.7467838
000100 3b 72 ab 3e 3c 7c 92 3d 2f 33 57 3e 83 64 67 bf
       0.33485588 0.07152602 0.21015619 -0.90387744
000110 e8 81 e2 3e cc bf ea be 17 e1 04 3e 92 c9 b0 3d
       0.44239736 -0.45849454 0.1297649 0.086321965
000120 1c c0 dd be 2c 2b f6 3c a0 4e 36 3d 08 c4 b7 3e
       -0.4331063 0.030049883 0.044508576 0.35891747
000130 88 f0 a6 3d a0 83 a8 3e a3 b1 c2 bd e1 fa 04 be
       0.081513464 0.32912922 -0.09506538 -0.12986328
000140 ee 20 27 3f 36 94 8c 3e 3e b2 27 3e db 82 f9 3e
       0.6528462 0.27456826 0.16376588 0.48732647
000150 46 bd 01 bf d4 42 eb 3d 80 c1 54 bf ea f0 a6 3e
       -0.50679433 0.11487356 -0.8310776 0.32605678
000160 e6 ab 06 3f 83 bf 1d bf 61 7d 39 bf b5 cb 87 be
       0.52606046 -0.6162035 -0.7245694 -0.26522604
000170 70 83 31 bf cb fa bc be 8f c8 ad 3e 0c 3f 58 bf
       -0.6934118 -0.3691009 0.33942077 -0.844712
000180 cf 28 ed 3e fc 60 07 bd f8 bb 09 bf 1a a5 32 3f
       0.46320197 -0.033051476 -0.5380244 0.69783175
000190 1a 87 f1 be b0 04 47 3f 72 09 fb be 1d 7d 5a 3e
       -0.47173387 0.7774153 -0.49030644 0.2133679
0001a0 4c 86 09 bf c5 9d 36 bf a6 fb 87 be 13 5d 0f 3f
       -0.53720546 -0.7133449 -0.2655918 0.56001395
0001b0 72 9a a3 3d 5a b8 be 3d 8f ac f3 be 76 c6 64 3f
       0.079884425 0.09312506 -0.4759259 0.8936533
0001c0 5e 60 96 3e 2e 5c 62 3e 38 34 f1 3d ec 29 65 bf
       0.29370397 0.22105476 0.11777538 -0.8951709
0001d0 99 52 18 3f 56 c5 07 bf a1 7b bb 3e 48 12 2e 3e
       0.59501034 -0.53035486 0.3661776 0.16999161
0001e0 09 9b 0a bf b7 d1 07 be 0a b5 7a 3d 4f 26 61 3e
       -0.54142815 -0.13263594 0.06120781 0.2198727
0001f0 ca 0a de 3d cb 1e 97 3e a3 77 89 be eb a6 86 be
       0.108419016 0.2951568 -0.26849088 -0.26299223
000200 d8 53 4b 3f 25 aa 0a 3e 40 7a 39 3d 5d b8 04 3f
       0.7942481 0.13541467 0.045282602 0.51843816
000210 c2 f1 12 bf ab a8 13 3e 94 c4 36 bf f9 2c a4 3e
       -0.57400143 0.1441981 -0.71393704 0.3206556
000220 d3 e7 fb 3e 16 eb 25 bf da 6e 59 bf bf 7b dc be
       0.49200305 -0.6481184 -0.8493477 -0.4306316
000230 fe 35 37 bf 53 62 69 be ba f6 ef 3e c4 f7 4c bf
       -0.7156676 -0.22791414 0.46867925 -0.8006556
000240 55 bc 17 bf 61 e5 7b 3b cf 18 41 3f 31 8c 31 bf
       -0.59271747 0.003843628 0.7542848 -0.6935454
000250 4c 1a 19 3f 25 37 46 bf 82 60 f0 3e 17 f4 25 be
       0.5980575 -0.77427894 0.4694863 -0.16206394
000260 29 58 27 3f 04 87 2e 3f b9 3f 8b 3e 49 f3 fe be
       0.65368897 0.6817477 0.27197054 -0.49794987
000270 09 5c 5c be 70 0a 9c bd 51 d4 a8 3e 59 ef 6f bf
       -0.21519484 -0.07619178 0.32974485 -0.9372459
000280 ac 05 7b be 5f 36 92 be db f6 19 be 0c 12 6e 3f
       -0.24513882 -0.28557107 -0.15035574 0.9299629
000290 85 70 e1 be 21 aa f1 3e 7b f7 ac be 80 15 4b bd
       -0.44031158 0.4720011 -0.33782563 -0.04958105
0002a0 34 b7 1c 3f c0 64 2e 3c 46 05 8b 3d 70 cb 71 bd
       0.61217046 0.010644138 0.06788115 -0.059031904
0002b0 3b ce 1f bd 5b e9 80 be 14 74 68 3e 8c c5 09 3e
       -0.039015036 -0.25178036 0.2270053 0.13454264
0002c0 5a 18 2e bf 25 7b 61 be 2e 7d 81 bc 3b 52 ea be
       -0.6800591 -0.22019632 -0.01580676 -0.45765862
0002d0 1d e2 c4 3e 7e 78 45 be 29 99 71 3f 5a 64 93 be
       0.3845376 -0.19284245 0.9437433 -0.287875
0002e0 d8 85 0e bf 47 34 56 3f 39 f7 48 3f ae d1 10 3f
       -0.5567298 0.8367352 0.7850223 0.56569946
0002f0 11 7f 47 3f d5 ef d2 3e 0a 80 2b bf 06 ee 54 3f
       0.7792826 0.41198602 -0.6699225 0.83175695
000300 0f 66 1f bf a5 98 28 3e e6 84 f1 3e 60 ab 43 bf
       -0.62265104 0.1646448 0.47171706 -0.7643337
000310 bb cd c6 3e 97 0f 1b bf 86 ea e9 be bb 44 60 3e
       0.38828835 -0.60570663 -0.4568674 0.21901219
000320 19 3e d1 3e 03 87 8a be d8 50 be 3d a5 09 fc be
       0.4086769 -0.2705613 0.092927635 -0.49226108
000330 20 ca 4e 3e f2 82 df be 36 77 e6 be 5d f4 02 bf
       0.20194292 -0.4365459 -0.45012826 -0.5115412
000340 be 9d d8 be 41 87 20 3e 0e ba 39 3e 07 90 d0 3e
       -0.42307848 0.15676595 0.1813738 0.40734884
000350 47 2f e0 be 31 3a 65 be c4 99 fe be ab df a9 3e
       -0.4378607 -0.2238548 -0.4972669 0.33178458
000360 7c bf da 3e 25 05 c1 3e b3 fc da 3d 71 fa 17 bf
       0.42724216 0.37699237 0.1069273 -0.5936652
000370 24 51 f4 be 09 4e c0 3d 99 d7 f6 be 79 9a cf 3e
       -0.47718155 0.09389884 -0.48211363 0.4054754
000380 fe 01 96 3d 7e 41 08 bf a6 83 c0 3d e0 0e e4 be
       0.07324599 -0.53224933 0.0940011 -0.445426
000390 7c 89 4c 3e 88 79 da 3e 29 a1 81 3e 41 79 32 bf
       0.19974321 0.42670846 0.25318268 -0.6971627
0003a0 dd 4a a2 3e ae 53 35 3d 90 7b a6 3e fb 3b 91 3e
       0.3169774 0.044269256 0.32516146 0.28366074
0003b0 3a 14 9f 3e 2e bc a6 3e ad 08 47 3e ce d0 08 3f
       0.3107012 0.32565445 0.19436903 0.5344361
0003c0 c5 ef c6 3e 05 03 cb bd 63 c3 18 bf 7e 97 28 3f
       0.38854805 -0.09912685 -0.59673136 0.6585616
0003d0 41 d8 de be cb 01 32 3f fc 76 08 3e 62 ac 41 be
       -0.43524364 0.69533986 0.13326639 -0.18913415
0003e0 da 09 0d bf f1 c3 be 3d 0f e1 a0 be d7 1b 30 3f
       -0.5509316 0.093147166 -0.31421706 0.6879248
0003f0 d7 af 61 bd 3f d4 eb 3e 9e 50 88 3d 47 82 22 3f
       -0.055099335 0.46060368 0.066560015 0.6348004

linear3.bias f4 [32]
000000 a5 51 99 be 32 64 89 bd 96 20 a2 3c 2c ec 98 3d
       -0.29945102 -0.06708564 0.019790929 0.07466921
000010 9e 78 bc be 76 c4 9a 3e 57 1a cc bd ec 92 89 be
       -0.36810774 0.30228013 -0.099659614 -0.26869905
000020 f1 42 9b be c0 cf ba bd 7a bd 06 be 01 a3 9f 3d
       -0.3032451 -0.091216564 -0.13158217 0.077947624
000030 42 54 4b be 9c e9 42 be 53 ea 8e 3c b9 7b 85 be
       -0.1985636 -0.19034427 0.017445719 -0.26070955
000040 58 f3 68 3e 85 99 17 be bf 0a 79 bd e0 d8 72 3e
       0.22749078 -0.14804657 -0.060801264 0.23715544
000050 ff 3c ac 3e 77 67 9a be 0c c3 b0 3d aa 53 ac 3e
       0.33640286 -0.30157062 0.08630952 0.3365758
000060 4c 64 96 be d2 8d b6 be 2b de a2 3d 45 b9 1b be
       -0.29373395 -0.35655075 0.079525314 -0.15207393
000070 fa f2 c8 be ac fb 66 3e 9a ac 54 3c f8 51 32 3e
       -0.39247876 0.22556943 0.012980605 0.17414081

linear4.weight f4 [2, 32]
000000 1a 05 23 3f d7 64 99 bd 4b 53 2d bc e9 29 7d be
       0.6367966 -0.07489937 -0.010578941 -0.24723019
000010 2a 6b 2e 3f 4a 2d 1e bf ef 1a 4e 3f 72 55 6a 3f
       0.6813227 -0.61787856 0.8050985 0.9153663
000020 c4 ef 79 3f ad 1a e9 ba 3e e4 82 3f 7d 8a 3b bf
       0.9763148 -0.0017784439 1.0225904 -0.7325819
000030 75 6b 6d 3f ec 8d af be f0 7d d6 bf a8 01 78 3f
       0.9274209 -0.34287965 -1.6757183 0.9687753
000040 ad 8d 06 bf bd 44 ce 3c 75 84 d7 3d fd 0a c5 be
       -0.5255993 0.025179261 0.10523311 -0.38484946
000050 2b 03 89 bf 31 5d 21 3f c2 1d 06 bf 03 99 64 bf
       -1.0704092 0.63032824 -0.52389157 -0.8929598
000060 b6 e6 23 3f 1c c1 5d 3f e6 be d2 bf c7 58 dd be
       0.6402391 0.86622787 -1.6464508 -0.43231794
000070 54 41 3c 3f 32 ba ac bf 17 23 16 3f 23 0f 67 be
       0.7353718 -1.3494322 0.5864729 -0.22564368
000080 45 b9 3a bf 07 04 a3 3f cb 34 bf 3f 83 d1 dc bf
       -0.7293895 1.2735604 1.4937986 -1.7251438
000090 26 7a 02 bf 03 32 5b 3f e9 39 d3 3d d9 ce 88 be
       -0.50967634 0.85623187 0.1031378 -0.26720312
0000a0 f8 2f e6 3e 62 5e c3 3f ff 35 95 3e e6 d6 4a 3f
       0.44958472 1.5263178 0.29142758 0.7923416
0000b0 fd 9b b8 bc 17 a5 e7 bf 29 2f d3 bd e0 05 b8 3e
       -0.022535319 -1.8097256 -0.103117295 0.35941982
0000c0 46 58 33 3f 21 39 af bf 4c 58 a6 bf b4 fb b0 3f
       0.7005657 -1.3689309 -1.2995696 1.3826814
0000d0 4c 79 1d 3f fa 45 93 be 71 23 e9 bf e8 08 17 3f
       0.6151321 -0.28764325 -1.8213941 0.58997965
0000e0 e4 19 d7 be d3 50 a1 be 73 7a 2b 3d 33 41 ed bf
       -0.4201194 -0.31506976 0.041864824 -1.8535522
0000f0 a9 c1 7f be 66 7f 74 3e 14 38 af 3f b2 50 d7 3f
       -0.24976219 0.23876724 1.3688989 1.6821501

linear4.bias f4 [2]
000000 9b 28 6b bd f3 0d 54 be
       -0.05741177 -0.20708446
