MODEL_CHECKPOINT.3764827.actor_right.pt (torch_old, 22033 bytes, 8 tensors)

linear1.weight f4 [48, 24]
000000 91 75 d1 3d 74 1d af 3e 29 98 29 bd 29 82 2f 3f
       0.10227502 0.34202158 -0.041404877 0.68557984
000010 c5 1f cb 3d 9f bd c8 3e 74 42 5a be b3 42 c5 3e
       0.09918169 0.3920717 -0.21314412 0.3852745
000020 c5 c6 1d 3e a7 19 b2 3e 3e f5 99 3e 59 f9 f2 3d
       0.15407856 0.34785196 0.30069917 0.118639655
000030 11 27 90 be 84 00 aa 3e f9 e7 24 3e 3b 4f b9 3e
       -0.28154805 0.33203518 0.16104116 0.3619326
000040 38 d7 a1 3d 99 f2 d4 3e 6c 0a 83 3e 2f ab 21 3e
       0.07902378 0.41591337 0.2559389 0.15787958
000050 87 7d 22 be 7f f6 a0 3e ca 92 21 3d 2a ff b9 3e
       -0.15868197 0.31438062 0.03944663 0.36327487
000060 c4 4b c9 3d 1c 7e c6 be 16 f4 5a 3e ed ff 99 be
       0.09828904 -0.3876809 0.21382174 -0.30078068
000070 cf d2 47 bf 06 b7 71 be 9c 4f 2d be 14 39 90 bd
       -0.78056043 -0.23604974 -0.169249 -0.07042137
000080 25 b8 86 bb b0 0c d8 be 5c 9e 19 be c5 8d ce 3c
       -0.004111307 -0.4219718 -0.15001816 0.025214085
000090 49 2e 8e bf aa 03 80 bc 62 2c 3e 3e 3f a5 51 3d
       -1.1107875 -0.015626747 0.18571618 0.05118298
0000a0 3c 65 e9 bb eb 96 db be 0d 30 dd bc 7a 2c 08 3d
       -0.007122664 -0.4288858 -0.027000451 0.03324554
0000b0 77 b2 ad bf 3d 50 88 bd 57 04 a6 3c aa d1 ab 3e
       -1.3570088 -0.06655929 0.020265741 0.33558398
0000c0 e5 d9 a1 3b 7c 00 90 bf 5f 42 4d 3d a9 97 24 bd
       0.004939305 -1.1250148 0.050112125 -0.040183697
0000d0 82 7e 74 3e 6c 76 05 3f 7f b4 e6 bd 92 cb de 3d
       0.23876384 0.5213382 -0.11264896 0.10878672
0000e0 e9 ae 48 be 6c 8d 91 bf 4d 75 49 be ee 4f d6 3e
       -0.19597973 -1.1371284 -0.19673653 0.41857857
0000f0 a8 65 e4 3d 8a 7e 20 3f 45 e4 06 3e 91 f4 bb 3e
       0.11152202 0.62693083 0.13173015 0.36710027
000100 40 3f 35 bd 8b 00 61 bf b9 d2 05 3e a5 ee 0f 3f
       -0.044249773 -0.87891454 0.13068666 0.5622352
000110 4a cb db 3d 83 ef 45 3f 85 ea 56 be 75 d2 2c 3f
       0.10732134 0.7731859 -0.209879 0.6750863
000120 6e 55 a3 be d0 38 2d 3e 55 ed d1 3c 1f b5 ae be
       -0.31901115 0.16916203 0.025625864 -0.3412256
000130 41 15 17 3c c3 14 22 3e 04 89 62 be f2 c2 5b be
       0.009221376 0.15828232 -0.2212258 -0.21461084
000140 8f af 9b be 2c b8 22 be 35 b5 86 3e 6d 74 dc be
       -0.30407378 -0.15890568 0.26310125 -0.43057576
000150 2e 8f 20 be 5c c0 86 3e 19 5b 05 3e 0f 3a 13 be
       -0.15679619 0.26318634 0.13023032 -0.14377616
000160 0f 9d 97 3c 74 78 58 bd a8 cc 9f 3e f9 25 2e bf
       0.018507509 -0.052849248 0.31210828 -0.6802669
000170 61 e2 1d be a4 d2 85 3d 97 2f 7e 3e 2d 94 44 bf
       -0.15418388 0.06534317 0.24822842 -0.767886
000180 4e 2c dd bc b5 44 0c be 68 0d 19 be d0 01 bd 3e
       -0.026998665 -0.13698085 -0.1494652 0.36915445
000190 0f 4d 9e be 93 02 d3 3e f4 cf f9 bd 08 b3 d0 3e
       -0.30918166 0.412129 -0.12197867 0.4076159
0001a0 36 81 d4 be 6e 72 dc bd 59 fe b7 bd 75 56 70 bd
       -0.4150483 -0.10764013 -0.0898406 -0.0586762
0001b0 e4 7a d8 be 90 5b 85 3e 84 d2 76 3d 24 b7 04 bd
       -0.42281258 0.2604642 0.060259357 -0.03240122
0001c0 af 09 d9 be 6d a7 d4 bb 3a 1b d6 bd 47 df 26 be
       -0.423902 -0.0064896853 -0.10454412 -0.16296111
0001d0 ee 5c 40 bf 43 30 94 3e 61 a0 f6 3d 3d d8 1a be
       -0.751418 0.2894307 0.120423086 -0.15121551
0001e0 88 36 f0 3c 70 b9 d9 be 77 e9 36 bd 0a 21 da 3d
       0.029322878 -0.4252429 -0.044656243 0.10650833
0001f0 c3 a9 10 be 36 3a 06 3e bf d3 c7 bd 0b 89 2a 3e
       -0.14127259 0.13108143 -0.09757184 0.1665384
000200 78 04 69 be 4b 0d 70 be 77 7e 7a 3d 66 75 2a 3e
       -0.22755611 -0.23442571 0.061155763 0.16646346
000210 b3 12 cf bd 2a 38 7c 3d 97 80 43 bd c0 d0 ad 3d
       -0.101109885 0.061577 -0.047730055 0.084870815
000220 1e 7b d6 3d 1d 92 29 bd 93 94 15 3f 02 c3 91 3d
       0.104727015 -0.04139911 0.5842983 0.07117273
000230 a0 3d 80 be 4f dc 93 3e b2 9c a5 3e b6 36 bd 3d
       -0.25047016 0.2887902 0.32346112 0.09238951
000240 3f 35 20 bd 01 b9 fb be 5c 47 86 3e 64 ad ab 3e
       -0.03911328 -0.49164584 0.26226318 0.33530724
000250 ea 5e 18 3e ed ed 48 be ba ce 87 3e 48 c4 85 3e
       0.14879957 -0.19622011 0.26524907 0.26126313
000260 21 12 fa 3d bd d4 ef be 97 ea 2a bd 12 29 82 3e
       0.12210489 -0.46841994 -0.04172763 0.2542196
000270 11 cd 96 be 3a 38 cd 3d b0 71 38 3c 0a bf 27 3e
       -0.29453328 0.1002049 0.011257574 0.1638147
000280 28 6a 88 be 43 38 6f be fc 2d 7d bd 3b 87 0c 3f
       -0.2664349 -0.23361306 -0.061811432 0.54893845
000290 8b ae 0f 3c d1 a5 14 3e 5a f0 2d 3e 48 f3 0a 3f
       0.008769642 0.14516379 0.16986218 0.5427747
0002a0 11 1a 02 bd ee 7e a6 be 30 d7 9b be 9c 0f 35 bc
       -0.03176314 -0.32518715 -0.30437613 -0.011051085
0002b0 e1 9e 1f be 3f 80 f6 3e 9c 28 b0 bd b9 63 bb bd
       -0.15587951 0.4814472 -0.086014956 -0.0914988
0002c0 da 06 5e bd 79 b0 8e be c9 00 62 3e 87 45 5d 3e
       -0.054205753 -0.27869013 0.22070612 0.21608554
0002d0 4a 9b 9a be ed 86 1c 3f 1d a8 ad 3e 2e e8 8c 3e
       -0.301966 0.6114338 0.33917323 0.2752089
0002e0 2b f3 bf bc 34 35 ad be c2 ec 1d 3d b7 a7 46 be
       -0.023431381 -0.33829653 0.038555868 -0.19399916
0002f0 46 3d dd bd 23 e3 04 3f f6 ca 17 3e d4 26 45 3c
       -0.108027026 0.51909083 0.14823517 0.012033183
000300 85 cc 12 3d b9 9d 05 bf ee 3c 24 3d 1d 2a f3 bb
       0.035839576 -0.5219379 0.04009717 -0.007420792
000310 53 33 ba 3e 8d 1b 31 3e f6 f9 3c bd 85 d1 5c 3e
       0.36367282 0.17295666 -0.04613682 0.215643
000320 43 3e 98 3d 46 e0 ee be fb ad 57 3e e2 bb ac 3e
       0.074337505 -0.46655482 0.21062462 0.33737093
000330 51 68 17 3e b4 6f 2c 3f a1 a3 a0 3d 1f 10 06 3f
       0.14785887 0.67357945 0.0784371 0.5236835
000340 2b 58 80 3e c2 a5 13 bd 26 ff ca 3e 75 85 f9 3e
       0.25067267 -0.03604675 0.39647788 0.48734632
000350 a8 e3 87 3e b8 46 21 3f 8b 09 8a 3d 3b 81 57 3e
       0.26540875 0.62998533 0.067401014 0.21045391
000360 17 1a cd 3d a3 47 3c 3d 39 79 80 3e fc 2f 21 3e
       0.10014742 0.045966756 0.25092486 0.15740961
000370 ea cf 4d 3f 41 7d ce bd 13 5c bd bd 55 06 94 3e
       0.80395377 -0.10082484 -0.092460774 0.2891108
000380 d2 1c c1 3c 4f df 26 3e f0 90 0b bd 19 6f 42 3e
       0.023573313 0.16296123 -0.03407377 0.18987693
000390 03 11 93 3f 54 9a 72 3e 90 de 9a bd c9 7f 55 3e
       1.1489567 0.23691684 -0.07561982 0.20849527
0003a0 58 c0 26 3e 1a c2 ae 3e 11 80 73 bd 43 39 86 be
       0.16284311 0.34132463 -0.059448306 -0.26215562
0003b0 a4 38 89 3f 02 86 be 3e e6 0d 36 3e 71 b1 bb be
       1.072041 0.37211615 0.1777874 -0.36658815
0003c0 3a 04 5d be c7 a6 2b 3f b6 ff 62 3e 29 34 12 3e
       -0.21583644 0.6705136 0.22167858 0.1427771
0003d0 00 fc 3f 3e 61 98 d2 be 06 f4 03 be 89 4f 21 be
       0.18748474 -0.4113188 -0.12886056 -0.15752997
0003e0 7c 1b 18 3e 96 1a 06 3f e7 a1 19 3e f1 29 11 be
       0.14854234 0.52384317 0.15003167 -0.14176156
0003f0 69 3e e0 3e 73 5c 88 be 53 22 e7 3d 0a 02 68 3b
       0.43797615 -0.26633033 0.11285844 0.0035401606

linear1.bias f4 [48]
000000 18 3a 8c 3d f3 50 54 bd f5 b0 94 3e 5f 08 ce 3e
       0.06847018 -0.05183501 0.29041258 0.40240762
000010 c0 ef de 3d 33 7f b1 3d d1 38 fc bc 04 5e 93 3d
       0.108855724 0.086668395 -0.03078881 0.071956664
000020 ef 98 9e 3d 13 19 97 3d 8f 89 83 be 13 8a f7 bd
       0.077440135 0.073778294 -0.25690886 -0.120868824
000030 2e 8d f8 bd 1e 28 3a be 61 03 fe bc 4b 89 7d bd
       -0.12136303 -0.18179366 -0.03100747 -0.06189851
000040 b0 1d ca bc 72 1b e3 3d 2c 8c 3d be f5 f6 c8 3e
       -0.02467236 0.11089219 -0.18510503 0.39250913
000050 ec 12 cd 3e 5d 07 7d bd ea 69 6d bd ec a8 e1 3d
       0.400535 -0.0617746 -0.057962336 0.110185474
000060 de 37 b9 bd 59 ed e2 3d df e0 0d 3e 33 6d 07 be
       -0.09043859 0.11080427 0.13855313 -0.1322525
000070 e5 79 d8 bd c7 ae cb 3c dd 94 ae be f2 53 65 3c
       -0.105701245 0.024863614 -0.3409795 0.013997065
000080 fd 78 85 3e 2e 5b 09 3d 98 79 ec 3d d3 9a 78 3d
       0.2606887 0.03353422 0.1154663 0.060694527
000090 7d 22 84 bd b4 c7 89 3e 0c 51 b0 3e 0b 8f 62 3e
       -0.064518906 0.26910174 0.34436834 0.22124879
0000a0 36 cf 26 3e 35 39 b5 3e 90 bb 13 be 00 72 8a be
       0.16289982 0.35395208 -0.14427018 -0.270401
0000b0 99 48 14 bd 40 b6 e4 bd af 7b 85 3d ff 25 33 be
       -0.036202047 -0.11167574 0.065177314 -0.17494963

linear2.weight f4 [48, 48]
000000 bf 29 8e 3d c5 1c ca 3e 4b 0e af 3e 9c 82 47 3e
       0.06941556 0.39475074 0.34190592 0.19483417
000010 05 84 a1 3e 98 bd 34 3e fc a0 04 3e b2 d1 30 3e
       0.31546035 0.1765045 0.12952036 0.17267492
000020 f2 d5 62 bd d1 2b 4c bf 84 ca 39 be f2 bb 8e be
       -0.055379815 -0.7975436 -0.1814366 -0.27877766
000030 f5 35 ca be 37 15 05 be 05 ee 15 3e c8 a9 56 bf
       -0.3949429 -0.12996374 0.14641578 -0.83852816
000040 92 ca c5 3e 88 77 bb 3d 71 e2 ec 3d c4 dc 4d 3e
       0.3863111 0.09153658 0.11566628 0.20103747
000050 83 d9 79 3e 0f d4 5a be b5 bf c5 bd d6 d7 45 be
       0.2439938 -0.21369956 -0.09655706 -0.19320616
000060 3f f6 ba be 0a b7 b7 3d c5 03 39 bf b6 ec 1a bc
       -0.36515996 0.08970459 -0.72271377 -0.00945585
000070 a2 e1 0f bf da 19 40 3e dc 50 a5 be cf 6c 92 3e
       -0.56203663 0.18759862 -0.32288253 0.2859864
000080 51 81 3b be 23 64 32 bf df 30 af be 94 4f 7c bd
       -0.18311049 -0.69684047 -0.34216973 -0.06159933
000090 29 b2 a3 be b9 3e 3a bc d0 3f 4c 3c 28 e4 d7 3d
       -0.31971863 -0.011367493 0.012466386 0.10541564
0000a0 73 b9 89 3e a2 a2 14 3e a1 19 4b 3c bd bc ad 3e
       0.268993 0.14515164 0.012396247 0.33933058
0000b0 bc b1 c8 3e a3 11 91 be dd 34 d3 3e f3 ef 51 3d
       0.391981 -0.28333768 0.4125127 0.051254224
0000c0 fe 45 79 be 28 6a ec be 59 78 af be a0 38 9b 3c
       -0.24343106 -0.4617474 -0.34271505 0.0189479
0000d0 6d a0 09 be 03 3b b6 bd 04 c3 c1 3c e6 98 ff bd
       -0.13440104 -0.08897974 0.023652561 -0.12480335
0000e0 a9 eb 82 be 9a 0f 8f 3e 37 27 c4 3e bc b4 ec 3e
       -0.2557042 0.2794159 0.3831117 0.4623164
0000f0 4a 8c c1 3e 52 85 88 3e 11 56 17 be ad a7 14 3f
       0.37802345 0.26664215 -0.14778925 0.5806835
000100 3e 3b c3 be ec 9c 4d be c4 0e fb bd e0 ad ca 39
       -0.38131136 -0.20079392 -0.12258676 0.0003865799
000110 0b ea 81 be cf a4 29 3e b5 99 af 3e ff fd 4c 3e
       -0.25373873 0.16566776 0.34296957 0.20018767
000120 76 9e e5 3e 04 78 8a bd 14 c4 dc 3e c1 86 00 bd
       0.4484746 -0.067611724 0.43118346 -0.03137851
000130 7c 02 84 3f 67 af a6 be 4e 87 ee 3c f4 5a 03 be
       1.0313258 -0.32555696 0.029117253 -0.12827665
000140 33 12 32 3e 77 96 6d 3e c7 9e aa 3e 0f 17 4c 3e
       0.17389755 0.23201929 0.33324262 0.19930671
000150 f2 3b 47 3e 19 68 52 3e 7b 4b ac bd 18 7d fb 3d
       0.19456461 0.20547523 -0.08412834 0.12279719
000160 96 46 76 bd 50 5d 4b be 50 d2 8d 3e 3d 15 48 be
       -0.06012591 -0.19859815 0.27699518 -0.19539352
000170 71 7d 91 3c e5 94 08 3f 4c a8 da be c0 88 9a be
       0.01776001 0.53352195 -0.42706525 -0.30182457
000180 0d 76 e7 bd e1 0a 42 bf 96 c7 99 be a9 02 e7 bd
       -0.11301813 -0.7579785 -0.30035084 -0.11279804
000190 58 60 b0 be ee 29 df 3d 34 a9 50 be f8 f4 e0 bd
       -0.34448504 0.10896669 -0.20377046 -0.10984224
0001a0 9a 71 a2 3d b3 d8 77 3f 0d 24 d1 3d ee 77 40 3e
       0.07931824 0.9681503 0.10211954 0.1879575
0001b0 53 85 0d 3f fe f6 6b be 4b 07 c7 bd c7 32 63 3f
       0.5528156 -0.23043439 -0.09718188 0.88749355
0001c0 8e 41 21 bf 4f 07 5e bd 94 06 bd be a8 8a ec be
       -0.62990654 -0.05420619 -0.3691908 -0.46199536
0001d0 11 c8 c2 be 67 d8 a0 3e 9e 5a 0b 3e f2 88 1c 3e
       -0.38043264 0.31415102 0.13608786 0.15286615
0001e0 ce 4e a1 3e 0a 2c 0a b8 4e 41 50 3f b6 23 86 3e
       0.31505436 -3.294278e-05 0.8134965 0.2619912
0001f0 03 d8 d8 3d df 31 e1 be 35 f0 32 3e 99 34 b0 be
       0.10588076 -0.4398336 0.17474444 -0.3441513
000200 f6 02 4e 3e 66 d9 30 3f 43 73 d4 3e 4c 2e 55 3c
       0.20118317 0.69081724 0.41494188 0.013011526
000210 35 f0 b5 3e 9f 36 27 be 45 d5 b1 bd cc cd 1c be
       0.35534826 -0.1632943 -0.08683256 -0.1531288
000220 fa 61 ba be 4b 45 93 bd ff 3a b3 bd 36 3b 1d bf
       -0.36402875 -0.07190951 -0.08751487 -0.61418474
000230 d3 e8 9d be f6 83 9a 3e b5 be 08 bf 35 54 ce bd
       -0.30841693 0.30178803 -0.53415996 -0.10074655
000240 3b 20 18 3d 23 cf 17 3f d7 f7 3c 3e 2a 31 8c 3e
       0.037140112 0.5930044 0.18453918 0.2738126
000250 83 46 86 3e b8 ad ac 3d 2c 5e 82 3e a2 f8 5a 3e
       0.2622567 0.08431572 0.25462472 0.21383908
000260 9b 2b a4 bb 40 73 51 bf 61 d6 84 be 29 7f d1 be
       -0.005010081 -0.8181648 -0.25944808 -0.40917328
000270 b3 4e 0b bf 97 6e 15 3d 94 53 94 3e aa 62 59 bf
       -0.5441696 0.03648242 0.28970015 -0.84916174
000280 a1 3b 96 3e e5 a5 a2 3e 3d 06 98 3e 68 60 ab 3e
       0.29342368 0.31767192 0.2969226 0.3347199
000290 ae 0f f0 3e 20 8d d2 be 3c b3 5d be 7c eb 5c be
       0.46886963 -0.41123295 -0.21650404 -0.21574205
0002a0 61 6b bd be 56 96 5f 3e b4 57 56 bf 85 00 3a be
       -0.36995986 0.21834692 -0.83727574 -0.1816426
0002b0 e7 1f 07 bf 5b 98 d7 3d e0 ff 96 be 04 dd 7b 3e
       -0.52783054 0.105271064 -0.29492092 0.2459603
0002c0 c7 ec d7 bd 7b 08 fe be 7e 67 99 be f9 7f ea bd
       -0.105432086 -0.49615845 -0.2996177 -0.1145019
0002d0 bd 9c 11 be cd f1 b2 3d b3 7f 44 bb a4 a8 ac 3b
       -0.14219947 0.08737526 -0.0029983341 0.005269127
0002e0 97 60 97 3e 60 75 e6 bd 73 b5 df bd b0 21 fa 3e
       0.2956588 -0.11252856 -0.109232806 0.48853827
0002f0 5e 0d 60 3e 82 66 cd be 23 f1 c3 3e 3c 66 76 3d
       0.21880099 -0.4011727 0.3826991 0.060156092
000300 e1 25 01 be 52 a8 14 bf aa b0 9d be 0c 4c 11 be
       -0.12612106 -0.58069336 -0.30798846 -0.14189166
000310 52 e3 a4 be dc 9b 5a bd 9b 29 9d be 9b 83 25 be
       -0.32204682 -0.053371295 -0.30695805 -0.16163485
000320 88 8a 05 3e 05 51 5b 3f ce 3c 0d 3e 09 04 40 3e
       0.13041127 0.856705 0.13792726 0.1875154
000330 44 86 1a 3f 3d 4b 99 bc 85 1f a8 be 14 9d 34 3f
       0.60361123 -0.018712634 -0.32836547 0.7055218
000340 cd 62 d1 be e9 14 78 be c0 43 a3 be c0 32 a5 be
       -0.40895692 -0.24226727 -0.31887627 -0.32265282
000350 05 f9 ed be 1a c8 ae 3e 24 5e 8d 3e 73 f9 05 3d
       -0.4647905 0.3413704 0.27610886 0.032708596
000360 77 30 99 3e 80 c2 35 be 29 eb 6b 3f 44 e2 8b 3e
       0.29919788 -0.17749977 0.921557 0.27321064
000370 33 7c af 3e 9c 25 50 be cb c2 83 3e be 4a 92 be
       0.34274444 -0.20326847 0.25734553 -0.2857265
000380 ed 85 89 3e 6b 1c 11 3f 36 79 b2 3e b0 6c cd 3d
       0.2685999 0.5668399 0.34858102 0.10030496
000390 ba f3 89 3e 0c 10 4b bb c4 25 ae 3d 44 94 0e be
       0.2694376 -0.0030984906 0.08503297 -0.13923746
0003a0 a6 51 23 be 61 09 44 be 8b f0 38 3c aa 96 aa be
       -0.15949115 -0.19144203 0.011287819 -0.33318073
0003b0 00 db d1 be 21 93 b4 3e 01 c5 22 bf ee 77 11 be
       -0.40987396 0.352685 -0.63581854 -0.14205906
0003c0 78 5b 45 bd 8a 5c 1f 3f f8 f3 33 3e 32 6c c5 3d
       -0.048182935 0.6225058 0.17573535 0.09639777
0003d0 6e a2 0d 3e 0d 2e 2d bc 03 9f ff 3d 9a 4f 6b 3e
       0.13831493 -0.010570061 0.12481501 0.22979584
0003e0 fb 06 f1 bb 32 78 61 bf 6f 15 bb bd 9e ee 64 be
       -0.0073555685 -0.8807403 -0.091349475 -0.2235665
0003f0 5a 99 24 bf 84 c7 15 bd 79 18 86 3e 01 70 43 bf
       -0.64296496 -0.036567226 0.26190546 -0.7634278

linear2.bias f4 [48]
000000 a5 b6 bf bd 66 a3 59 be 14 b9 ec 3d 66 fa 81 bd
       -0.093610086 -0.21253738 0.11558738 -0.06346588
000010 d1 b8 f8 bd 83 6a 1e bd b9 4f e9 3d 4e 91 98 be
       -0.12144626 -0.038675796 0.11392159 -0.2979836
000020 6c 0e 4c bd e8 31 54 3e 15 60 86 bd de ee 53 bd
       -0.04981844 0.20722163 -0.06561295 -0.051741473
000030 44 c3 63 be b6 1f 58 3d 2a c4 48 3e 56 38 bf bd
       -0.22242457 0.052764617 0.1960608 -0.09336917
000040 51 f5 52 3d fc 67 f7 bd 1f 31 4e bc d3 62 0b 3e
       0.051503483 -0.1208038 -0.012584954 0.13611917
000050 3b 16 4f bd ff 89 ef 3d d3 2e bd bd 1f 85 3d bd
       -0.05055831 0.116962425 -0.09237447 -0.046269532
000060 83 78 e0 3c 9a ac 90 3d c8 ba 27 be 4f 86 49 bd
       0.027401214 0.07064171 -0.16379845 -0.049200352
000070 53 25 96 3c ca 59 e3 bd f8 d4 50 bd 1d eb b9 3c
       0.018328344 -0.1110111 -0.050984353 0.022695119
000080 c4 bc 18 be e4 97 6b bd 79 77 e0 bd 01 38 b0 3c
       -0.14915758 -0.0575179 -0.109602876 0.02151108
000090 a6 34 bd bd 35 87 00 3d e2 2e 80 bd cd 34 5e bc
       -0.092385575 0.031378943 -0.06258942 -0.013562393
0000a0 cc 97 82 be 52 6e 30 bd 69 48 41 3c df 7a 06 be
       -0.25506437 -0.04307396 0.011797049 -0.13132809
0000b0 4a 8f 88 3d 9b 1c e2 bd 78 3c 4b be 0f 30 b8 bd
       0.06667955 -0.11040612 -0.19847286 -0.089935414

linear3.weight f4 [32, 48]
000000 5b 91 20 bf 42 ac 94 3d 06 15 02 3f dd 50 26 bf
       -0.62721795 0.07259418 0.5081333 -0.6496714
000010 44 fd 1a 3f 2b 77 46 bf d0 aa 37 be ed a4 05 3e
       0.605427 -0.77525586 -0.17936254 0.13051195
000020 48 02 c8 3e 16 6c 0b be 0d ef 3d 3e 3e 7e 2d bf
       0.3906424 -0.1361545 0.18548222 -0.67770755
000030 0f 44 19 3e ae 78 96 be 2a 74 8f be e6 2c 40 bf
       0.14967369 -0.29388946 -0.28018314 -0.7506851
000040 2c 8c f7 be b4 4e 78 3e 02 45 f1 3d 82 76 93 3e
       -0.4834913 0.24248773 0.1178074 0.28801352
000050 fc c9 1e bf b7 ed 01 be 0f 5c ec be c5 50 19 3e
       -0.62026954 -0.12688337 -0.46163985 0.14972217
000060 cf 33 a6 3e 85 d5 e0 3e 3c 61 81 3e d7 fb 0a bf
       0.32461402 0.43912902 0.25269496 -0.5429053
000070 22 91 d0 be 83 6d b1 3d 9d 3b 51 be bf 5a d0 3e
       -0.40735728 0.08663466 -0.20432897 0.40694234
000080 aa 66 4f bd 6f 57 28 bf 17 5b 04 3e 03 d7 11 bf
       -0.050635017 -0.65758413 0.12925373 -0.56968707
000090 e7 a3 66 3e 20 df a8 3e 07 8d da 3e 47 d1 cf be
       0.22523461 0.3298273 0.4268572 -0.40589353
0000a0 c8 57 6c 3e 7b cd 87 3e 68 3a a2 3e c1 12 d9 3e
       0.23080361 0.26523957 0.31685185 0.4239712
0000b0 ea a9 cf 3e 1c f3 ac 3e bb 15 1d 3e c6 70 b4 3e
       0.40559322 0.33779228 0.15340321 0.3524229
0000c0 0f 9a 07 3f 4a ac 0c 3b 3b 23 2c bf 2b ad 36 3f
       0.5296945 0.0021464997 -0.6724126 0.71357983
0000d0 c9 99 ac be 1b 78 0a 3f 5c 60 f2 be d8 0c 07 3e
       -0.3371108 0.54089516 -0.4733914 0.13188493
0000e0 3b f9 08 bf c5 fa 1b bf 05 b4 b6 be f9 2d 2b 3f
       -0.53505296 -0.6092952 -0.3568422 0.66867024
0000f0 c7 ed f0 3d 27 d0 2e 3e 6b 84 20 be 59 3c 3e 3f
       0.117641024 0.17071591 -0.15675513 0.74310833
000100 69 ce a9 3e b8 8c 8a 3d 67 24 53 3e 1d 70 68 bf
       0.3316529 0.06765121 0.20619355 -0.9079607
000110 17 ae e0 3e 82 90 ec be 14 ad 00 3e 57 65 a8 3d
       0.4388282 -0.46204 0.12566024 0.08222454
000120 4c ab df be cf ce d5 3c eb a4 25 3d 72 f6 b5 3e
       -0.43685377 0.02609959 0.04044048 0.35539585
000130 33 9b 9f 3d 9d 6b a6 3e 39 aa c9 bd 98 1a 09 be
       0.07793274 0.32503977 -0.098469205 -0.13389051
000140 15 08 26 3f ae 91 8a 3e 83 89 23 3e 74 04 f8 3e
       0.6485608 0.2706427 0.15970425 0.48440897
000150 29 c2 02 bf 0d 3c e3 3d bc b5 55 bf ae fe a4 3e
       -0.51077515 0.11095438 -0.8348043 0.32225555
000160 94 a3 05 3f 82 d3 1e bf 5d 6e 3a bf a7 c9 89 be
       0.52202725 -0.62041485 -0.7282465 -0.2691166
000170 11 8a 32 bf 07 13 bf be fb ca ab 3e 75 43 59 bf
       -0.6974192 -0.37319204 0.335533 -0.84868556
000180 d3 87 eb 3e 5d 9d 16 bd bf b9 0a bf 4d b9 31 3f
       0.46002063 -0.036771167 -0.54189676 0.6942337
000190 8d 25 f3 be 21 0a 46 3f 54 a3 fc be 8f 7a 56 3e
       -0.47489586 0.77359205 -0.4934336 0.2094519
0001a0 f4 80 0a bf 46 76 37 bf a1 ea 89 be 25 8b 0e 3f
       -0.54103017 -0.71664846 -0.2693682 0.5568107
0001b0 40 0c 9c 3d 41 ba b8 3d 64 4e f5 be a2 df 63 3f
       0.07619524 0.090199 -0.4791137 0.8901311
0001c0 da cf 94 3e 82 93 5e 3e db 84 e9 3d ce 23 66 bf
       0.29064828 0.21735957 0.11402293 -0.89898384
0001d0 73 70 17 3f 4e a7 08 bf 61 79 b9 3e 7b 15 2a 3e
       0.5915596 -0.53380287 0.36225417 0.16609757
0001e0 51 81 0b bf 4c a4 0b be be ef 6a 3d 50 d7 5d 3e
       -0.54494196 -0.13636893 0.057357542 0.21664166
0001f0 76 ec d6 3d 7c 23 95 3e e8 24 8b be 25 a2 88 be
       0.1049432 0.29128635 -0.27176595 -0.26686206
000200 c7 4c 4a 3f ad e5 06 3e b3 a6 29 3d 09 05 04 3f
       0.790234 0.13173552 0.041418742 0.51570183
000210 61 ec 13 bf da e1 0f 3e 5a a9 37 bf 65 4e a2 3e
       -0.5778256 0.14051 -0.71742785 0.31700435
000220 62 f0 f9 3e 43 e8 26 bf 08 4a 5a bf 8a 55 de be
       0.4881621 -0.65198153 -0.8526921 -0.43424636
000230 dc 2c 38 bf 3d 64 6d be 46 21 ee 3e 83 ea 4d bf
       -0.7194345 -0.23182769 0.4650976 -0.8043596
000240 6f 41 17 bf 23 4f da 3b 10 d4 41 3f f5 ef 30 bf
       -0.5908422 0.006662266 0.75714207 -0.69116145
000250 1c af 19 3f d6 82 45 bf 40 96 f1 3e ed dc 22 be
       0.6003282 -0.77152765 0.47184944 -0.15904589
000260 b4 1c 28 3f 88 26 2f 3f 9e 83 8c 3e d9 ef fd be
       0.656688 0.6841817 0.27444166 -0.49597052
000270 f7 7f 59 be 35 4f 98 bd a1 e8 a9 3e 63 46 6f bf
       -0.21240221 -0.074369825 0.33185294 -0.93466777
000280 e6 d3 78 be 46 c0 90 be 5c 25 17 be 4a c6 6e 3f
       -0.24299583 -0.28271693 -0.14760345 0.93271315
000290 42 1e e0 be f6 0d f3 3e e4 97 ab be 28 4c 3f bd
       -0.43773085 0.4747159 -0.3351432 -0.046703488
0002a0 5f 5f 1d 3f cd 4d 5b 3c 56 d4 90 3d 96 61 6a bd
       0.6147365 0.013385248 0.0707175 -0.05722197
0002b0 43 db 14 bd de f8 7e be 6a eb 6a 3e ba ee 0c 3e
       -0.036341917 -0.24899623 0.22941366 0.13762942
0002c0 4b 69 2d bf 4c 16 5f be 07 3e 54 bc 6f 5f e9 be
       -0.6773879 -0.2178585 -0.012954242 -0.45580623
0002d0 e1 7b c6 3e 86 bb 42 be 43 41 72 3f be 1b 92 be
       0.38766387 -0.19016847 0.9463083 -0.2853679
0002e0 f8 c5 0d bf 54 d1 56 3f a7 7c 49 3f 89 70 11 3f
       -0.553802 0.8391316 0.7870583 0.5681234
0002f0 c7 35 48 3f 1c 86 d4 3e 10 e8 2a bf 8c 9b 55 3f
       0.7820706 0.41508567 -0.6676035 0.8344047
000300 cc 19 1f bf 2f b7 2a 3e 46 1f f3 3e 1f 6d 43 bf
       -0.6214874 0.16671441 0.47484797 -0.7633838
000310 6b 54 c8 3e 1b c0 1a bf f1 4c e9 be 57 2c 62 3e
       0.39126906 -0.6044938 -0.45566514 0.22087227
000320 da 65 d2 3e 83 99 89 be 04 34 c3 3d 21 7b fb be
       0.41093332 -0.26874933 0.095314056 -0.49117377
000330 ae ac 50 3e 8c 43 df be 6f da e5 be c2 9d 02 bf
       0.20378372 -0.43606222 -0.44893214 -0.5102197
000340 4a 4f d8 be 5b 08 23 3e 18 b4 3b 3e 6d e3 d1 3e
       -0.42247993 0.15921156 0.18330419 0.40993825
000350 7a b0 df be 03 10 64 be 7e 1f fe be b5 e5 aa 3e
       -0.43689328 -0.22271733 -0.49633402 0.33378378
000360 fa 44 dc 3e e0 15 c2 3e ca d3 df 3d f6 9f 17 bf
       0.43021375 0.37907314 0.109290674 -0.59228456
000370 c6 28 f4 be df 3c c4 3d 99 18 f6 be e0 f7 d0 3e
       -0.47687358 0.09581923 -0.48065642 0.40814114
000380 ca 31 99 3d 79 02 08 bf 0f f3 c3 3d f3 b7 e3 be
       0.074802 -0.5312877 0.09567844 -0.4447628
000390 d6 d8 4e 3e 23 8e db 3e 44 e2 82 3e 0c 4e 32 bf
       0.20199904 0.4288188 0.25563252 -0.6965034
0003a0 fa 4a a3 3e 57 3e 3f 3d 6e d5 a7 3e df 4e 92 3e
       0.3189314 0.04669031 0.3278002 0.285758
0003b0 ed 59 a0 3e 1c 12 a8 3e aa 44 49 3e e0 72 09 3f
       0.31318608 0.32826316 0.196551 0.5369091
0003c0 d3 9c c5 3e db 44 d2 bd f3 d0 19 bf 43 ff 27 3f
       0.3859621 -0.102670394 -0.60084456 0.65623873
0003d0 c4 d1 e0 be 79 5a 31 3f 68 4e 06 3e b0 3d 45 be
       -0.43910038 0.69278675 0.13115847 -0.19261813
0003e0 a6 eb 0d bf 49 75 b8 3d f0 d0 a2 be d6 7b 2f 3f
       -0.55437696 0.09006745 -0.31800032 0.68548334
0003f0 49 e4 6f bd c8 dc ea 3e 4d 80 83 3d 14 d5 21 3f
       -0.05856732 0.45871568 0.06420956 0.63215756

linear3.bias f4 [32]
000000 f5 03 98 be 94 20 91 bd c3 90 84 3c f3 90 9e 3d
       -0.2969052 -0.07086292 0.016182309 0.077424906
000010 ae a0 bb be 27 38 99 3e 79 0c ce bd 05 10 89 be
       -0.36646026 0.29925653 -0.10060973 -0.26770034
000020 d9 f7 9b be 83 30 c2 bd eb 03 08 be e6 0c 9b 3d
       -0.3046253 -0.09481909 -0.13282745 0.075708196
000030 9d ce 4b be b7 56 40 be f6 0d 99 3c db 24 86 be
       -0.19903035 -0.18783079 0.018683415 -0.26199993
000040 06 56 66 3e fb de 13 be 88 26 69 bd 89 8b 6e 3e
       0.22493753 -0.14440529 -0.056921512 0.23295416
000050 29 a3 ab 3e bb e8 99 be 61 a0 b4 3d 43 97 ab 3e
       0.3352292 -0.30060372 0.08819652 0.3351384
000060 fc b7 95 be ae 03 b6 be 2a e9 a4 3d 9f 76 19 be
       -0.2924193 -0.35549682 0.08052285 -0.14986657
000070 2c aa c8 be 43 99 67 3e e9 d3 42 3c 32 1f 2e 3e
       -0.3919233 0.22617058 0.011891344 0.17004088

linear4.weight f4 [2, 32]
000000 86 62 23 3f f3 ac 9a bd f8 ed 37 bc 1d e7 7b be
       0.6382221 -0.07552519 -0.01122617 -0.24599881
000010 6a c9 2e 3f 4b 57 1e bf 4d 00 4e 3f d4 b5 6a 3f
       0.68276083 -0.6185195 0.8046921 0.916837
000020 fe d6 79 3f 7e 16 1f bb 68 d7 82 3f f4 b6 3b bf
       0.9759368 -0.002427488 1.0221987 -0.7332604
000030 44 52 6d 3f db ec ae be e8 bc d6 bf 9a e8 77 3f
       0.9270365 -0.3416508 -1.67764 0.96839297
000040 72 b8 06 bf 6c c0 d6 3c ef 6b d9 3d f0 58 c5 be
       -0.5262519 0.0262148 0.1061629 -0.38544416
000050 1c 1b 89 bf f4 a3 21 3f b1 c6 05 bf 63 c8 64 bf
       -1.0711398 0.631408 -0.52256304 -0.89368266
000060 1a 37 24 3f de 1f 5e 3f d7 f3 d2 bf 3a a7 dc be
       0.6414658 0.86767375 -1.6480664 -0.43096334
000070 28 75 3c 3f 21 dd ac bf 3d f6 15 3f cc ac 67 be
       0.73616266 -1.3504983 0.58578855 -0.2262451
000080 19 c0 3b bf 5a 91 a2 3f 7c be be 3f e7 46 dd bf
       -0.7333999 1.2700608 1.4901881 -1.7287263
000090 8d 81 03 bf 77 64 5a 3f 69 33 cc 3d 10 e8 8a be
       -0.51369554 0.8530955 0.09970743 -0.27130175
0000a0 16 72 e4 3e b8 e9 c2 3f 34 76 93 3e 7a 16 4a 3f
       0.4461829 1.5227575 0.2880112 0.78940547
0000b0 e2 89 d7 bc 0a 1b e8 bf 95 aa d9 bd 2b 47 b6 3e
       -0.026310865 -1.8133252 -0.10628239 0.35601172
0000c0 37 88 32 3f 1d b2 af bf fe d4 a6 bf 33 8c b0 3f
       0.697391 -1.3726231 -1.303375 1.3792785
0000d0 fc c2 1c 3f 73 4f 95 be e3 98 e9 bf f4 4c 16 3f
       0.6123502 -0.29162177 -1.8249782 0.5871117
0000e0 bb 24 d9 be 5e 6a a3 be 0d 40 1f 3d a4 b6 ed bf
       -0.42410836 -0.3191709 0.038879443 -1.8571362
0000f0 23 e7 81 be 5e e8 71 3e d5 b4 ae 3f e3 df d6 3f
       -0.25371656 0.23623797 1.3648936 1.6787075

linear4.bias f4 [2]
000000 0e 60 6d bd 37 c5 57 be
       -0.057952933 -0.21071325
