MODEL_CHECKPOINT.3764827.actor_target_left.pt (torch_old, 22033 bytes, 8 tensors)

linear1.weight f4 [48, 24]
0	0x3f0d64bb	0.5523183
1	0xbd664036	-0.05621358
2	0xbd89e64a	-0.06733377
3	0x3e106cc4	0.14103991
4	0x3ec27bab	0.37984976
5	0xbbe1f115	-0.0068951943
6	0x3dbb6846	0.09150748
7	0xbd6be183	-0.05758811
8	0x3ebb85a0	0.36625385
9	0xbe5323eb	-0.2061917
10	0xbd8a6291	-0.06757081
11	0x3e320db8	0.17388046
12	0x3e45fa55	0.19333775
13	0x3ee5b6c7	0.4486601
14	0x3b9f9d8a	0.004871075
15	0xbcf04c7a	-0.029333342
16	0x3ecd1532	0.40055233
17	0xbe181c4f	-0.14854549
18	0x3dca6a37	0.0988354
19	0x3e7ec59c	0.2488007
20	0x3ecfe8b3	0.40607223
21	0x3e773a2e	0.24143288
22	0xbdf8c512	-0.12146963
23	0x3e27ece7	0.16398965
24	0x3e42ee3c	0.19036192
25	0xbd0fd656	-0.035116516
26	0xbe23d751	-0.16000105
27	0xbd858f97	-0.06521528
28	0xbe33e8ad	-0.17569228
29	0x3e8473ae	0.25869507
30	0x3d3cefeb	0.04612724
31	0xbd8fd184	-0.07022384
32	0x3db438a1	0.087998636
33	0xbd5abecd	-0.053404618
34	0xbe158ea9	-0.14605202
35	0x3da488f9	0.08033938
36	0xbf0ea443	-0.55719393
37	0x3e71ce37	0.23613821
38	0x3d555a79	0.052088235
39	0x3e448743	0.19192223
40	0xbdd16e51	-0.10226119
41	0xbcc15588	-0.023600355
42	0xbe47bfe1	-0.1950679
43	0xbe5738b1	-0.2101772
44	0xbeb5453e	-0.3540439
45	0x3f10d278	0.5657115
46	0xbe825400	-0.25454712
47	0xbe3ade42	-0.18248847
48	0x3f210623	0.6289999
49	0x3e28a22d	0.16468115
50	0xbe625ee3	-0.22106509
51	0x3e1f6870	0.15567183
52	0x3f4f22c8	0.80912447
53	0xbe82fdeb	-0.2558435
54	0x3df52393	0.11969676
55	0x3dee6767	0.11640816
56	0x3ea733c6	0.32656687
57	0x3dc3cc0d	0.09560404
58	0x3e447c4b	0.19188039
59	0xbdb2d3fe	-0.087318406
60	0x3f1d52ff	0.61454767
61	0xbceec1ca	-0.02914514
62	0xbe3156af	-0.17318223
63	0xbd6ba516	-0.057530485
64	0x3dffe440	0.12494707
65	0x3dc1c380	0.09461117
66	0xbde542b2	-0.11194362
67	0xbd8d08d0	-0.068864465
68	0x3f0a7f1a	0.5410019
69	0x3e43425e	0.19068286
70	0xbda9e385	-0.08295349
71	0xbc0ddb5e	-0.008658258
72	0x3e45c814	0.19314605
73	0x3c4d7384	0.012539748
74	0x3de22a71	0.11043251
75	0xbe79b240	-0.24384403
76	0x3f6574cd	0.8963135
77	0x3dbd2d41	0.09237147
78	0xbd36c47a	-0.04462097
79	0xbde5908c	-0.11209211
80	0x3dc08aa3	0.09401443
81	0xbe249048	-0.16070664
82	0x3e04142a	0.12898317
83	0x3e3c99e4	0.1841808
84	0x3fbc23b0	1.4698391
85	0xbcd1cffb	-0.025611868
86	0xbda48918	-0.08033961
87	0xbdb70ab9	-0.08937592
88	0xbe25c435	-0.16188128
89	0xbe693ce9	-0.22777142
90	0xbd29b7b6	-0.041434966
91	0xbe532e1b	-0.20623057
92	0x3f9d66b1	1.2296964
93	0x3e8fa03e	0.28051943
94	0x3cf29e2b	0.029616436
95	0x3d8ee45b	0.06977149
96	0xbf0b7762	-0.5447904
97	0xbe997055	-0.29968515
98	0xbde7e56a	-0.11323054
99	0x3c33bf6a	0.01097093
100	0x39cedf11	0.0003945758
101	0x3f060775	0.5235513
102	0xbdb2fb09	-0.087392874
103	0x3cc642e8	0.024201825
104	0xbea0da1b	-0.314164
105	0xbdc99b24	-0.09844044
106	0x3e767408	0.240677
107	0x3ec3f575	0.38273206
108	0xbe1c786d	-0.15280314
109	0x3ecf3eed	0.40477696
110	0x3d2403d7	0.040042724
111	0x3e86b386	0.2630884
112	0xbee4c3f6	-0.44680756
113	0xbebc7452	-0.36807495
114	0x3e13a45b	0.14418165
115	0x3e90ad39	0.28257158
116	0xbe15b14d	-0.14618416
117	0x3ef7d09b	0.4840134
118	0x3de101c1	0.10986663
119	0x3da1dedc	0.07903835
120	0xbbec2fab	-0.007207831
121	0xbd8b1dd3	-0.06792798
122	0x3e865869	0.26239327
123	0x3edc1e44	0.4299184
124	0x3db29303	0.087194465
125	0x3e115244	0.14191538
126	0x3e98d2bd	0.2984828
127	0x3f2f475a	0.6846825
128	0xbca6e10a	-0.020370979
129	0xbd843995	-0.064562954
130	0x3e1cd70b	0.15316407
131	0x3ecae33f	0.396265
132	0x3d6b9eb6	0.057524405
133	0x3ec6508b	0.38733324
134	0x3c8eac8c	0.017416261
135	0x3e830c65	0.25595394
136	0xbbae90b6	-0.0053273095
137	0x3ed9b3c7	0.42519972
138	0x3da934ca	0.08262022
139	0xbe452b80	-0.19254875
140	0x3e38ec38	0.1805886
141	0x3d5ba432	0.053623386
142	0x3e53c8b4	0.20682031
143	0xbd8b69e8	-0.068073094
144	0x3ab23b30	0.0013597962
145	0x3eb841ac	0.35987604
146	0xbdf28712	-0.11842169
147	0xbe59b4cb	-0.21260373
148	0x3e4503d0	0.19239736
149	0xbe89ebb2	-0.26937634
150	0xbe7ed738	-0.24886787
151	0x3e07024f	0.13184474
152	0xbe44283c	-0.19155973
153	0x3f1320a8	0.57471704
154	0x3d14d8fe	0.036339752
155	0x3e179652	0.14803436
156	0x3f019884	0.50623345
157	0xbdc84410	-0.09778607
158	0x3d8233d5	0.063575424
159	0x3e936565	0.28788295
160	0xbe604cd7	-0.21904312
161	0x3ecac169	0.39600685
162	0xbe5a6f41	-0.21331502
163	0x3e114578	0.14186656
164	0x3f07f053	0.5310108
165	0xbbe0e60a	-0.0068633603
166	0xbdb8c3dc	-0.09021732
167	0xbe768f53	-0.24078111
168	0x3deda174	0.1160306
169	0xbe39c4a4	-0.18141419
170	0xbde15093	-0.110016964
171	0x3e1938aa	0.14963022
172	0x3e8c7598	0.27433467
173	0x3f0c0696	0.5469755
174	0x3dca79ea	0.098865345
175	0x3d87ba44	0.06627324
176	0xbe580bb3	-0.21098213
177	0x3c1a478f	0.009416475
178	0x3bd50499	0.006500792
179	0x3e8b18b0	0.27167273
180	0x3edaad6f	0.42710444
181	0x3f40ef23	0.75364894
182	0xbcc2d89f	-0.023784934
183	0x3afe89bb	0.0019419709
184	0x3dd313cc	0.1030651
185	0xbeca6cda	-0.39536172
186	0x3d8aef82	0.06783964
187	0xbe812cc8	-0.25229478
188	0x3ef08964	0.4697982
189	0x3f17c0b3	0.5927841
190	0x3dfde3b2	0.12396945
191	0xbe952c9c	-0.29135597
192	0xbd89a5df	-0.067210905
193	0xbe991801	-0.29901126
194	0xbdaaeec7	-0.083463244
195	0x3ef2c3bc	0.47414958
196	0x3e7262f5	0.23670562
197	0x3d65162b	0.055929344
198	0x3dc3201a	0.09527607
199	0x3eb6e14a	0.35718757
200	0xbe97d403	-0.2965394
201	0xbe36977c	-0.17831224
202	0x3e2fd114	0.171696
203	0xbe000595	-0.1250213
204	0xbe07430b	-0.13209169
205	0xbd152687	-0.036413696
206	0x3e10be18	0.14135015
207	0xbe89bbb1	-0.2690101
208	0xbd82b8a4	-0.06382874
209	0xbec4ba36	-0.38423318
210	0xbef81383	-0.48452386
211	0x3e3417fd	0.17587276
212	0x3eb2f708	0.34954095
213	0x3cc99367	0.02460642
214	0xbe32ac6e	-0.17448589
215	0x3e527ca1	0.20555355
216	0xbf59d265	-0.8508666
217	0xbf026ff2	-0.50952065
218	0xbcd1ff05	-0.025634298
219	0xbe14ad45	-0.14519222
220	0xbedd8ba8	-0.43270612
221	0x3ecd51c0	0.40101433
222	0x3da1d82a	0.07902558
223	0x3e671c1b	0.22569315
224	0xbf4dd35e	-0.80400646
225	0xbe9a901d	-0.30188075
226	0xbd0e066f	-0.034674104
227	0xbc64fc6f	-0.0139762005
228	0xbe434aa0	-0.19071436
229	0x3f1fa01b	0.62353677
230	0x3ddee412	0.10883345
231	0x3daa9776	0.0832967
232	0xbdb3969b	-0.0876896
233	0xbe270aa7	-0.16312657
234	0x3cb69896	0.022289556
235	0x3e36337f	0.17793082
236	0x3eca52be	0.39516252
237	0x3bba917f	0.005693614
238	0x3cbdd582	0.023173098
239	0x3cee8caa	0.029119808
240	0x3da1fb4f	0.079092614
241	0x3e84e64b	0.2595695
242	0xbde6f652	-0.112774506
243	0x3e01abd1	0.12663199
244	0xbe4c447f	-0.19948004
245	0x3cd949bd	0.026524419
246	0xbe091189	-0.13385595
247	0xbe112eae	-0.14177963
248	0x3e71f31e	0.23627898
249	0x3e0fbba9	0.1403643
250	0x3ec867dc	0.39141738
251	0x3dcb212b	0.09918436
252	0xbf082d27	-0.53193897
253	0x3e41d188	0.18927586
254	0x3e094f57	0.13409172
255	0xbe8799b5	-0.26484457

linear1.bias f4 [48]
0	0xbecc2ffa	-0.39880353
1	0x3cd3e91a	0.025867987
2	0xbd7dcb0e	-0.061961226
3	0xbe421548	-0.1895343
4	0x3e8b1e36	0.27171487
5	0xbd9bddc3	-0.07610657
6	0x3dcfae46	0.10140662
7	0x3eaf4488	0.34231973
8	0x3e4693ad	0.19392271
9	0x3e83140d	0.25601235
10	0x3dd0f32d	0.10202632
11	0x3e6ada93	0.22934942
12	0x3eb512f7	0.35366032
13	0x3dafd4cb	0.08585509
14	0x3d6f4d6d	0.05842345
15	0x3e2c86e2	0.16848329
16	0xbd418b8c	-0.047252223
17	0xbdb6a406	-0.08918004
18	0x3e523003	0.20526128
19	0xbe053b09	-0.13010801
20	0x3eb32d22	0.3499537
21	0xbd9a71e8	-0.07541257
22	0x3d1cf1a9	0.038316403
23	0x3d052c83	0.032513153
24	0xbd55133e	-0.052020304
25	0xbd7e413a	-0.062073924
26	0x3db24b80	0.08705807
27	0x3eb06f2b	0.34459814
28	0xbe623f34	-0.22094423
29	0xbe21d34a	-0.15803257
30	0xbe1392f6	-0.1441153
31	0xbd1ec862	-0.03876532
32	0x3d74f3c2	0.059802778
33	0xbd7dc79f	-0.06195795
34	0xbd0b89a0	-0.034066796
35	0x3d977568	0.0739544
36	0x3d2572c5	0.040392656
37	0x3e153a3e	0.14572999
38	0x3e75f124	0.24017769
39	0xbd720fd8	-0.05909714
40	0x3e95dec5	0.29271522
41	0x3e05b010	0.13055444
42	0xbe931921	-0.2873011
43	0x3d15c989	0.036569152
44	0x3da4a9c5	0.080401935
45	0x3c491bbd	0.01227468
46	0xbcb5a41d	-0.022172982
47	0xbe5f7157	-0.2182058

linear2.weight f4 [48, 48]
0	0xbb47a7d4	-0.0030465024
1	0xbe90e617	-0.28300545
2	0x3ddc1813	0.10746779
3	0x3fc56c79	1.5423728
4	0x3e17887a	0.14798155
5	0xbea85f4d	-0.3288521
6	0x3e750e2e	0.2393119
7	0xbf044335	-0.5166505
8	0xbee0f74d	-0.43938676
9	0xbf2e9bea	-0.68206656
10	0x3cc8667b	0.024462929
11	0x3e00318d	0.12518902
12	0x3e400600	0.18752289
13	0x3d7dce94	0.061964586
14	0xbe70a7b5	-0.23501475
15	0xbe27bc17	-0.16380344
16	0x3ed6507e	0.41858286
17	0x3f1ceb5e	0.6129664
18	0x3ebe5898	0.37176967
19	0x3ee706a9	0.4512227
20	0xbf2e3046	-0.6804241
21	0xbe0d79f9	-0.1381606
22	0xbe0a973a	-0.13534251
23	0xbf0ed8a0	-0.55799294
24	0xbe96dd8e	-0.29465908
25	0xbed1a45d	-0.40945712
26	0x3eed5207	0.46351644
27	0x3ceabe25	0.028655121
28	0xbe8f7136	-0.2801606
29	0xbf29b414	-0.662904
30	0xbf3bef4c	-0.73412013
31	0x3e2a2228	0.16614592
32	0xbe92d10d	-0.28675118
33	0x3f329201	0.69754034
34	0x3e99d1ba	0.3004282
35	0x3f6ed8ae	0.93299377
36	0xbda6d0cb	-0.08145293
37	0xbdd345e2	-0.103160635
38	0xbea536b6	-0.32268304
39	0x3f0b4da6	0.5441536
40	0x3d1d2dc4	0.038373724
41	0xbc4d9c6e	-0.012549503
42	0xbf1e693e	-0.61879337
43	0xbe80114f	-0.25013205
44	0x3e0d0c4a	0.13774219
45	0x3e571282	0.21003154
46	0x3f4f0272	0.80863106
47	0x3f6d4427	0.9268212
48	0xbe8e4394	-0.27785933
49	0xbec51922	-0.38495737
50	0xbe040480	-0.12892342
51	0x3f174222	0.59085286
52	0xbeae923f	-0.34095952
53	0xbd65c444	-0.056095377
54	0x3e0e7c99	0.13914718
55	0xbf0063f8	-0.5015254
56	0xbe268532	-0.16261747
57	0xbd0f3617	-0.034963693
58	0xbea2b3c8	-0.31777787
59	0x3f12191d	0.5706957
60	0x3ef7a841	0.48370555
61	0x3e3eb57e	0.18623921
62	0xbec25c09	-0.37960842
63	0xbea95deb	-0.33079466
64	0x3e0bcca1	0.13652278
65	0x3f018881	0.50598913
66	0x3e8d7f34	0.2763611
67	0xbd325ff7	-0.04354855
68	0xbe424dc2	-0.18974975
69	0xbddfa3e4	-0.109199315
70	0xbddb8904	-0.10719493
71	0x3e1ab1f3	0.15106945
72	0xbe638b17	-0.22221027
73	0x3f71f3a3	0.94512385
74	0x3eb0b021	0.34509376
75	0x3e5531fc	0.20819849
76	0xbed8caba	-0.42342168
77	0x3caeac9a	0.021322537
78	0xbe9eef0f	-0.31041762
79	0x3f00d0cd	0.50318605
80	0xbe8a040c	-0.26956213
81	0x3f13117c	0.57448554
82	0x3dbdd691	0.09269441
83	0x3f316ff7	0.6931147
84	0xbe91ee32	-0.2850204
85	0x3eb3eb57	0.35140488
86	0xbdf06df5	-0.11739723
87	0x3f283fe8	0.65722513
88	0xbeb50f54	-0.35363257
89	0xbe374589	-0.1789762
90	0xbebff91d	-0.37494746
91	0xbe191492	-0.14949253
92	0x3e915fa5	0.28393283
93	0x3eb9ca63	0.3628722
94	0x3f627bed	0.88470346
95	0xbb98e752	-0.0046662474
96	0xbeee2153	-0.465098
97	0xbe770c4d	-0.24125786
98	0xbf30e2ca	-0.6909605
99	0xbf640f48	-0.8908582
100	0xbe90868e	-0.28227657
101	0xbde9cd93	-0.11416163
102	0xbdc733a0	-0.097266436
103	0xbe5901ed	-0.21192141
104	0x3e7643b6	0.24049267
105	0x3f1b2b89	0.60613304
106	0xbe8914b6	-0.26773614
107	0x3f15fe97	0.585916
108	0x3f0561cc	0.5210235
109	0x3eab7350	0.33486414
110	0x3e6b9192	0.2300475
111	0xbebd65f3	-0.36991844
112	0xbebb99bf	-0.36640736
113	0xbedf9792	-0.43670326
114	0xbe6ce70e	-0.23135015
115	0xbe233967	-0.15939866
116	0x3ec32312	0.38112694
117	0x3e65d2a1	0.2244363
118	0x3d378fc8	0.044814855
119	0x3ec4bb5c	0.38424194
120	0x3df84639	0.12122769
121	0x3fe2b18d	1.7710434
122	0xbf26efd1	-0.6520968
123	0x3ebbf80d	0.36712685
124	0x3e99021c	0.29884422
125	0x3e755a20	0.23960161
126	0x3f1dff37	0.6171755
127	0x3e512580	0.20424461
128	0xbeb967cf	-0.36212012
129	0xbef79372	-0.4835468
130	0x3b7d5217	0.0038653666
131	0xbf494eac	-0.7863567
132	0xbebf56c0	-0.37370872
133	0x3eafbb99	0.34322813
134	0x3e90d95f	0.2829084
135	0xbb8713f0	-0.00412225
136	0xbf32d461	-0.69855314
137	0x3ca26373	0.019822812
138	0xbd818941	-0.06325007
139	0xbe6337ac	-0.22189206
140	0x3e949382	0.2901879
141	0x3d90767e	0.070538506
142	0x3c54a426	0.012978589
143	0xbf919c92	-1.1375906
144	0x3c2b9aa1	0.010473878
145	0x3e22b449	0.15889086
146	0x3d9ca91b	0.07649442
147	0xbfa326ec	-1.2746253
148	0xbe3c37a3	-0.18380599
149	0x3ead374d	0.33831254
150	0xbed8677f	-0.4226646
151	0x3eda4f46	0.42638606
152	0x3f164258	0.5869498
153	0x3ed3850b	0.4131244
154	0xbe0de3e2	-0.13856462
155	0x3d8405b3	0.064463995
156	0x3c94d4c3	0.018167859
157	0xbce8c088	-0.028412119
158	0x3ebfb3d0	0.37441874
159	0x3d34c4e2	0.044133075
160	0xbe846b81	-0.2586327
161	0xbf03754d	-0.5135086
162	0xbe9688f2	-0.29401356
163	0xbed9572b	-0.42449316
164	0x3f202fb1	0.6257277
165	0x3e8c4182	0.27393728
166	0x3ce6bdef	0.02816674
167	0x3ee9d5cc	0.45670927
168	0x3df06e28	0.11739761
169	0x3f1e1cef	0.617629
170	0xbeb62923	-0.3557826
171	0x3d89e9f6	0.06734078
172	0x3ea886ea	0.3291543
173	0x3ef69ea5	0.4816791
174	0x3f07ffb7	0.53124565
175	0xbe132517	-0.14369617
176	0x3e4745df	0.19460247
177	0xbed32d82	-0.41245657
178	0xbec5417b	-0.3852652
179	0xbf126eff	-0.57200617
180	0xbbbc983c	-0.0057554524
181	0x3e59ef0f	0.212826
182	0x3f095fdf	0.5366191
183	0xbee4b635	-0.44670263
184	0xbe8d91dc	-0.27650344
185	0xbdd9ebd4	-0.10640684
186	0x3f03063e	0.511814
187	0xbd02f513	-0.031972002
188	0xbe901183	-0.2813836
189	0xbe241cb4	-0.16026574
190	0xbf14dc7b	-0.58148926
191	0xbf59994f	-0.84999555
192	0xbe71981d	-0.23593183
193	0xbefc7d12	-0.4931417
194	0xbeb93957	-0.3617656
195	0x3e34ae0c	0.17644519
196	0xbe82725c	-0.25477874
197	0xbca185cb	-0.019717118
198	0x3d0ecf35	0.034865577
199	0xbed682e9	-0.41896752
200	0xbdf5321a	-0.11972447
201	0x3e63fb57	0.22263847
202	0xbebb5f75	-0.36596265
203	0x3f2894df	0.6585216
204	0x3f0d909a	0.5529877
205	0x3eb53055	0.35388437
206	0xbe2daa5e	-0.16959521
207	0xbef648e4	-0.48102486
208	0xbabab2ca	-0.0014243957
209	0x3d8b5088	0.068024695
210	0xbc5bf36c	-0.0134247355
211	0xbddd4317	-0.10803812
212	0xbe0c29c1	-0.13687803
213	0xbdf964f8	-0.121774614
214	0xbc68dffb	-0.014213557
215	0x3ec3046f	0.3808932
216	0xbe84efdc	-0.25964248
217	0x3fa0d3e8	1.2564669
218	0x3ddaee8b	0.1069003
219	0x3e7972d5	0.24360211
220	0xbe3b9267	-0.18317567
221	0x3e2ee335	0.1707886
222	0xbd744839	-0.05963919
223	0x3f11a0ab	0.56885785
224	0xbe4cd323	-0.20002417
225	0x3e51ccb7	0.20488249
226	0x3d7e35f9	0.06206319
227	0x3e87f3b1	0.2655311
228	0xbea2afa6	-0.31774634
229	0x3ec81b8b	0.39083514
230	0x3e2b6ce0	0.16740751
231	0x3ef9a350	0.4875741
232	0xbf1072ad	-0.5642498
233	0xbe5979b3	-0.21237831
234	0xbe3a6d50	-0.18205762
235	0xbea39a5a	-0.31953698
236	0x3e35ded9	0.17760791
237	0x3eda1db4	0.42600787
238	0x3f5933e7	0.8484482
239	0xbf27fab3	-0.6561691
240	0x3df0088b	0.117203794
241	0x3e6a0260	0.22852468
242	0x3e5a3b97	0.21311794
243	0xbef4c1b3	-0.4780403
244	0x3db24460	0.08704448
245	0x3ca5b292	0.02022675
246	0xbd69678d	-0.05698352
247	0x3ef10477	0.4707372
248	0x3dba8a8d	0.09108458
249	0x3e459f19	0.19298972
250	0xbe5cdfce	-0.2156975
251	0xbeafb958	-0.34321094
252	0xbe78c95b	-0.24295561
253	0xbe4447eb	-0.1916806
254	0x3e93c26f	0.2885928
255	0x3c8d5078	0.017250285

linear2.bias f4 [48]
0	0x3e0f630b	0.14002626
1	0xbe89394f	-0.26801535
2	0xbedf1ca6	-0.43576545
3	0xbdec478f	-0.11537086
4	0xbdb40177	-0.08789342
5	0xbc4ca721	-0.0124910185
6	0xbe592129	-0.21204056
7	0x3e054b2c	0.13016957
8	0xbd1abc44	-0.0377772
9	0xbadeb49b	-0.001699108
10	0xbdb2cd56	-0.08730571
11	0x3bd5dc4f	0.006526507
12	0x3be9c4c9	0.0071340543
13	0xbe6cf310	-0.23139596
14	0xbe844285	-0.25832
15	0xbcb7dff5	-0.022445658
16	0x3d9a63ef	0.07538592
17	0x3e23ae98	0.15984571
18	0xbdde45b5	-0.10853139
19	0xbd1a0fa0	-0.037612557
20	0xbc0c1c30	-0.008551642
21	0xbe5a88c4	-0.21341234
22	0xbe26a8e7	-0.16275369
23	0xbb54532d	-0.003239821
24	0x3c036d9d	0.008021739
25	0x3d623e9e	0.055235498
26	0xbdf48a7e	-0.11940478
27	0xbe4c2222	-0.19934896
28	0xbe19f6bc	-0.15035528
29	0xbe79e0b2	-0.2440212
30	0xbdafdd1b	-0.085870944
31	0x3e1ae3e7	0.15126
32	0xbe0bef9b	-0.13665621
33	0xbdf050cf	-0.11734163
34	0xbe6f7be7	-0.23387109
35	0xbe54b4e3	-0.20772128
36	0xbdffbb7b	-0.12486931
37	0xbe02ff7d	-0.12792774
38	0xbdd77c0f	-0.10521709
39	0x3c536b30	0.012903973
40	0xbe0092b9	-0.1255597
41	0x3d9dbbc1	0.07701827
42	0xbd5b5280	-0.053545475
43	0xbe49e932	-0.19717863
44	0xbc8a2907	-0.016865266
45	0x3dc7a1c4	0.09747651
46	0xbe040e34	-0.12896043
47	0xbe4b5710	-0.1985743

linear3.weight f4 [32, 48]
0	0x3dc96aa2	0.09834792
1	0x3f29a3db	0.6626565
2	0x3f336e87	0.70090526
3	0x3d691bdb	0.05691133
4	0x3f1c5f2a	0.6108271
5	0xbe8e95d6	-0.2784869
6	0x3ec46dc2	0.3836499
7	0xbf03b0a8	-0.5144143
8	0x3f0202f2	0.50785744
9	0xbe445fad	-0.19177122
10	0x3f0ee731	0.5582152
11	0xbe622303	-0.22083668
12	0x3ee23fda	0.4418934
13	0xbea46d97	-0.3211486
14	0xbd6791a5	-0.05653538
15	0xbf127d11	-0.57222086
16	0x3ef488b0	0.47760534
17	0xbf49a317	-0.7876448
18	0xbe88ceff	-0.26720425
19	0x3bab8550	0.005234398
20	0x3f3158e4	0.6927626
21	0x3f37fe21	0.71872145
22	0xbea76a79	-0.3269842
23	0x3f2c207b	0.6723706
24	0xbe911720	-0.28337955
25	0x3eb96a2d	0.36213818
26	0x3f4ea653	0.8072254
27	0xbf019505	-0.5061801
28	0x3f3d7b85	0.740166
29	0x3f22e960	0.6363735
30	0xbcb8aa30	-0.02254209
31	0xbf0f73cc	-0.56036067
32	0xbe10ab12	-0.14127758
33	0xbe1d4274	-0.15357381
34	0x3f21b75b	0.63170403
35	0x3ed69790	0.41912508
36	0xbe371099	-0.17877425
37	0x3f0cd3a7	0.55010456
38	0x3f0c5dd8	0.54830694
39	0xbeff34c8	-0.49844956
40	0xbeb8341c	-0.35977256
41	0x3ed84c05	0.42245498
42	0x3f139c10	0.5766001
43	0xbd7129c3	-0.058877718
44	0xbdbc2ef8	-0.09188646
45	0x3ebc80c1	0.3681698
46	0x3eb81cc5	0.3595945
47	0xbd2f48f5	-0.042794187
48	0x3d340c48	0.043957025
49	0x3f0abc68	0.54193735
50	0x3f1b45cb	0.6065337
51	0x3cd84ab2	0.026402805
52	0x3f263be9	0.64935166
53	0xbe8ab134	-0.2708832
54	0x3f03b58b	0.5144889
55	0xbe8c1620	-0.2736063
56	0x3f41e17f	0.75734705
57	0xbdba5467	-0.0909813
58	0x3f0ad2c6	0.54227865
59	0xbe5fc5a5	-0.21852739
60	0x3ec233ac	0.37930048
61	0xbe8c3407	-0.27383444
62	0xbe89337b	-0.2679709
63	0xbf1527e2	-0.5826398
64	0x3ea99a0a	0.33125335
65	0xbf34ceda	-0.7062813
66	0xbea153b0	-0.3150916
67	0xbdc1ebef	-0.09468829
68	0x3f2ee40e	0.68316734
69	0x3f12fac8	0.5741391
70	0xbe85e6fe	-0.26152796
71	0x3f290666	0.6602539
72	0xbeddffaa	-0.4335912
73	0x3f074ad6	0.52848566
74	0x3f2b96c9	0.67026955
75	0xbf0a940e	-0.54132164
76	0x3f221cba	0.63325083
77	0x3ecf4553	0.40482578
78	0x3e077e13	0.13231687
79	0xbf0843bc	-0.53228354
80	0xbe78bb2a	-0.24290147
81	0xbe87690b	-0.2644733
82	0x3f3d91f3	0.74050826
83	0x3ea78121	0.32715705
84	0xbc6a362a	-0.01429514
85	0x3ec7a3a1	0.38992026
86	0x3eb3005e	0.34961218
87	0xbeebf1ca	-0.46082908
88	0xbedb6b0d	-0.4285511
89	0x3f067c77	0.5253367
90	0x3f0af99d	0.5428713
91	0xbdadf635	-0.08494226
92	0xbcb6cddb	-0.022314956
93	0x3ec5531e	0.38539976
94	0x3f009c57	0.50238556
95	0xbe8d2d5f	-0.27573678
96	0xbe9f38b6	-0.31097955
97	0xbed7dfe6	-0.42163008
98	0xbe094fb0	-0.13409305
99	0x3dd92071	0.10601891
100	0xbeb2b24a	-0.3490165
101	0x3e71f6fc	0.23629373
102	0xbe0d2506	-0.13783655
103	0x3edddd25	0.43332782
104	0xbf1a600e	-0.6030282
105	0x3e88d337	0.26723644
106	0xbebf4b5f	-0.3736219
107	0x3ed42243	0.4143239
108	0xbea444d0	-0.3208375
109	0x3f075f0d	0.5287941
110	0x3ebead13	0.3724142
111	0x3edc088b	0.42975268
112	0xbee5813f	-0.4482517
113	0x3ec04316	0.37551183
114	0x3ee48c73	0.44638404
115	0x3db8987a	0.090134576
116	0xbef25cc3	-0.47336397
117	0xbea8efaf	-0.32995364
118	0x3ee55b85	0.44796386
119	0xbef81ecb	-0.48460993
120	0x3f3681a6	0.7129158
121	0xbee4e82e	-0.4470839
122	0xbea126c1	-0.3147488
123	0x3e89a198	0.268811
124	0xbebcb24c	-0.3685478
125	0xbeb53174	-0.35389292
126	0x3e4ced8f	0.20012496
127	0x3eaa1ba8	0.33224225
128	0x3ede7001	0.43444827
129	0x3ead1ce1	0.33811095
130	0xbe06ba35	-0.1315697
131	0xbe88375f	-0.26604745
132	0x3e4cb1ac	0.19989651
133	0xbeb801bf	-0.35938832
134	0xbea2fb1d	-0.3183221
135	0x3ef2e7aa	0.4744237
136	0x3f3e089f	0.74231905
137	0xbed9f0b8	-0.42566466
138	0xbec14686	-0.37749118
139	0x3e5fa1f8	0.2183913
140	0x3e862d6e	0.26206535
141	0xbe6619ba	-0.22470751
142	0xbea6f6fd	-0.32610312
143	0x3f0c3713	0.54771537
144	0x3e7d4cff	0.24736403
145	0x3f1ffd4d	0.6249588
146	0x3f317fdf	0.6933574
147	0xbd654763	-0.055976283
148	0x3f2abd4a	0.6669508
149	0xbde35274	-0.11099711
150	0x3f05014d	0.5195511
151	0xbeb57028	-0.3543713
152	0x3f0cc512	0.54988205
153	0xbea3f6a3	-0.32024106
154	0x3f34cfb1	0.7062941
155	0xbed06dba	-0.40708715
156	0x3ec285a2	0.3799258
157	0xbeb7dacd	-0.3590912
158	0xbe7b5134	-0.24542695
159	0xbf316484	-0.69294
160	0x3e6e30a3	0.23260741
161	0xbf4a0be7	-0.7892441
162	0xbe93deb5	-0.2888085
163	0x3ceafb28	0.028684214
164	0x3f0c51ad	0.5481213
165	0x3f0dec23	0.5543844
166	0xbe1be594	-0.15224296
167	0x3efeb608	0.49748254
168	0xbe902abc	-0.28157604
169	0x3f024f8d	0.50902635
170	0x3f1ca2f3	0.6118614
171	0xbef98d65	-0.48740688
172	0x3eecf18c	0.46278036
173	0x3f0a4d09	0.54023796
174	0x3c5d2817	0.013498328
175	0xbf0c2eba	-0.547588
176	0xbec9c043	-0.39404497
177	0xbe49e292	-0.19715336
178	0x3ef99903	0.4874955
179	0x3eff29e8	0.4983666
180	0xbe43c4e0	-0.1911807
181	0x3ed684c4	0.41898167
182	0x3f0b5025	0.54419166
183	0xbf11ed40	-0.5700264
184	0xbed0cb2f	-0.40780017
185	0x3f0932fe	0.5359343
186	0x3f29b193	0.6628658
187	0xbdc434be	-0.09580372
188	0xbbc7c77c	-0.0060967784
189	0x3e8f730f	0.2801747
190	0x3eb4bed5	0.35301843
191	0xbde313f5	-0.11087791
192	0x3f6b7286	0.91971624
193	0x3e07ea96	0.13273081
194	0xbf3e58f3	-0.74354476
195	0xbf55bbd7	-0.83489746
196	0xbe77044a	-0.2412273
197	0xbe8e4d96	-0.27793568
198	0x3e4c4b35	0.19950564
199	0x3e9811e5	0.29701152
200	0x3e98e4a6	0.29861945
201	0xbcfec53d	-0.03109991
202	0x3ed749f0	0.42048597
203	0xbe92b52d	-0.2865385
204	0x3f13d0e0	0.5774059
205	0xbf16a9c8	-0.58852816
206	0xbe068031	-0.13134839
207	0x3ea0b5de	0.31388754
208	0x3f5ff955	0.87489825
209	0x3f25f3b1	0.6482497
210	0xbe0b88ad	-0.13626356
211	0xbe8f6054	-0.2800318
212	0x3e1b3df1	0.15160348
213	0xbe0ccdd2	-0.13750389
214	0xbf086851	-0.53284174
215	0x3ea23313	0.31679592
216	0xbf31e153	-0.6948444
217	0x3e6741b2	0.22583655
218	0xbe54352e	-0.20723411
219	0xbe14e492	-0.14540318
220	0x3c20da7e	0.009817718
221	0x3e250f04	0.1611901
222	0xbf1ac270	-0.6045294
223	0x3ee4c730	0.44683218
224	0xbf3c17df	-0.73473924
225	0xbd310b2c	-0.043223545
226	0xbf0397f0	-0.51403713
227	0x3f0bc01a	0.5459
228	0xbe0c53bf	-0.13703822
229	0x3e312e31	0.17302777
230	0xbd091918	-0.033471197
231	0x3d493e43	0.049131643
232	0xbee91b42	-0.4552861
233	0x3f05dc58	0.5228934
234	0xbe74da21	-0.23911335
235	0xbefcf32a	-0.4940427
236	0xbea8d0bf	-0.3297176
237	0x3f1aef0d	0.6052101
238	0x3e3a8c0c	0.18217486
239	0xbf0c6917	-0.54847854
240	0x3f8f7bcb	1.1209654
241	0xbd9a3fbf	-0.0753169
242	0xbf7683f1	-0.96295077
243	0xbf51d01f	-0.8195819
244	0xbe8e2654	-0.27763617
245	0xbea0a9c6	-0.31379527
246	0x3ed6d8fc	0.4196242
247	0x3eb0b8c8	0.34515977
248	0xbd4c3ac4	-0.04986073
249	0xbe15bdeb	-0.14623229
250	0x3ee026eb	0.43779692
251	0x3d029280	0.031877995
252	0x3f2776ce	0.65415657
253	0xbf0ea734	-0.5572388
254	0xbe9ad275	-0.3023869
255	0x3f518cd1	0.81855494

linear3.bias f4 [32]
0	0xbe2e43af	-0.17018007
1	0xbde3fbf5	-0.11132041
2	0x3e17a0dd	0.14807458
3	0xbcb9dacc	-0.022687338
4	0xbdb9f47c	-0.09079835
5	0xbcdd544e	-0.027017739
6	0xbe08feb1	-0.13378407
7	0x3e098e03	0.1343308
8	0xbdb09d30	-0.08623731
9	0xbdee2efb	-0.116300546
10	0xbd8bfea4	-0.06835678
11	0x3afbdd4a	0.001921573
12	0x3e8f0b24	0.27938187
13	0xbc146f72	-0.009059774
14	0xbdd9279a	-0.106032565
15	0x3d8f95b7	0.07010978
16	0xbe975e61	-0.29564193
17	0xbddb879c	-0.10719225
18	0xbe30d22b	-0.17267673
19	0x3d79690a	0.06089119
20	0x3c396e6b	0.01131783
21	0x3c1b5e76	0.00948297
22	0xbe8659b0	-0.262403
23	0x3e06478f	0.13113235
24	0x3d8b14a7	0.067910485
25	0x3c912355	0.017717043
26	0xbded227c	-0.11578843
27	0xbe141889	-0.14462484
28	0x3d6e3826	0.058159016
29	0xbd90dd25	-0.0707343
30	0x3daec924	0.08534458
31	0x3dc51065	0.09622268

linear4.weight f4 [2, 32]
0	0x3f5d04c9	0.86335427
1	0x3f623cf8	0.8837428
2	0xbf93602d	-1.1513726
3	0x3f5a6c80	0.8532181
4	0x3e5ea546	0.21742734
5	0xbeb5a1db	-0.35475048
6	0x3e1cc890	0.15310884
7	0xbfa3fc8f	-1.281145
8	0x3f962548	1.1730127
9	0x3f7f5a0e	0.9974679
10	0x3f0c4891	0.5479823
11	0xbf1053bd	-0.56377774
12	0xbf7dae86	-0.99094427
13	0xbebe75ac	-0.37199152
14	0x3d6977b8	0.05699894
15	0xbf899d66	-1.0751159
16	0x3f3054db	0.6887948
17	0x3f5973e9	0.8494249
18	0x3e771624	0.2412954
19	0xbf86ef57	-1.0541791
20	0xbdb5fdea	-0.08886321
21	0x3f789f1f	0.971178
22	0x3ef5d221	0.48011878
23	0xbfaeab15	-1.364596
24	0x3eb0ed2c	0.34555948
25	0x3e89db67	0.26925203
26	0x3f3c1456	0.7346853
27	0xbe87955d	-0.26481143
28	0xbf49f44e	-0.78888404
29	0x3f328c8b	0.697457
30	0x3e017fc4	0.12646395
31	0x3e95b56e	0.29239982
32	0x3e50f3f2	0.20405558
33	0x3e10ac2a	0.14128175
34	0x3f5a7aec	0.85343814
35	0x3e41d62b	0.18929355
36	0xbf974ce8	-1.1820345
37	0xbfdc8553	-1.7228187
38	0xbfb1305f	-1.3842887
39	0x3f64962e	0.89291656
40	0x3f1b06c9	0.6055723
41	0x3e1ed3ae	0.15510437
42	0x3fabb1aa	1.3413594
43	0xbf73087c	-0.9493482
44	0x3f814c57	1.0101422
45	0xbfd2204e	-1.6416109
46	0xbfcbf775	-1.5934893
47	0x3f7ae0be	0.9799918
48	0xbe82d2f3	-0.25551566
49	0x3eb58f06	0.3546068
50	0xbf98bbbc	-1.1932292
51	0x3f5d097c	0.86342597
52	0xbfc555ba	-1.5416787
53	0x3eb24305	0.34816757
54	0xbf5975f8	-0.8494563
55	0x3f814e49	1.0102016
56	0x3faca09a	1.3486512
57	0xbf9f904b	-1.246591
58	0xbe690cfd	-0.22758861
59	0xbff7164a	-1.9303677
60	0x3fdd8999	1.7307616
61	0x3f2b232b	0.6685054
62	0x3fd71d0e	1.6805742
63	0x3fc456ad	1.5338951

linear4.bias f4 [2]
0	0xbe782202	-0.24231723
1	0x3e20996e	0.15683529
