MODEL_CHECKPOINT.3764827.actor_left.pt (torch_old, 22033 bytes, 8 tensors)

linear1.weight f4 [48, 24]
0.5548698 -0.052969214 -0.06785142 0.13950986 0.38301986 -0.010433104 0.09098967 -0.059117947
0.3682008 -0.20333585 -0.066887684 0.17064925 0.19582577 0.44450462 0.005554166 -0.03256431
0.4051254 -0.14713562 0.10072368 0.24558087 0.40817922 0.23668852 -0.11958114 0.16076978
0.19128154 -0.036601834 -0.15927829 -0.065478474 -0.17552008 0.25786906 0.04684972 -0.07048701
0.08808267 -0.054555543 -0.14897797 0.08057382 -0.556895 0.23586579 0.04916217 0.19215658
-0.102144696 -0.025235202 -0.19486682 -0.21078168 -0.3534085 0.5670034 -0.25434598 -0.183093
0.6301467 0.16790375 -0.22155024 0.15518704 0.81026685 -0.2574464 0.119211346 0.11592344
0.33130598 0.097952746 0.19245315 -0.09006932 0.6158075 -0.030552205 -0.17260915 -0.060281426
0.12746698 0.09561709 -0.110319994 -0.07257219 0.54226494 0.18945388 -0.08132989 -0.012366035
0.19197711 0.013294757 0.110940255 -0.2434313 0.8949376 0.09297353 -0.044113085 -0.11167934
0.092723094 -0.15999466 0.12867998 0.18440579 1.469359 -0.02507394 -0.08064253 -0.08915063
-0.16284353 -0.22706148 -0.041969825 -0.20606643 1.2319367 0.28099555 0.02908149 0.069935404
-0.54636705 -0.29580644 -0.11134852 0.018771831 -0.00054219866 0.52483076 -0.08551081 0.03200271
-0.3144298 -0.09273742 0.24377577 0.3835282 -0.15389463 0.4061153 0.043141644 0.2638847
-0.44784743 -0.36347586 0.13952881 0.2796494 -0.14697066 0.4862674 0.10521381 0.07611627
-0.006563075 -0.06991933 0.25894827 0.4352802 0.08888405 0.14201197 0.29503798 0.6900441
-0.019323472 -0.063896954 0.15722659 0.40198517 0.058750246 0.38731492 0.021478936 0.26167428
-0.004135762 0.42843437 0.082278304 -0.1888376 0.18149137 0.053989183 0.20647825 -0.06436204
0.00027340424 0.36116996 -0.116229415 -0.21291104 0.19097598 -0.2685178 -0.24667542 0.1315372
-0.19188258 0.5752296 0.03954332 0.14704178 0.50509006 -0.09680253 0.06677896 0.28689018
-0.22015339 0.39561585 -0.21567409 0.14021282 0.5301905 -0.005770453 -0.09257649 -0.2424346
0.119481534 -0.1796035 -0.11057427 0.14662187 0.2764198 0.54432917 0.09830784 0.063264936
-0.20878465 0.009363947 0.0027900867 0.2675373 0.42942563 0.75158197 -0.02749561 -0.0021931555
0.10526015 -0.39702305 0.066730805 -0.2548973 0.47238797 0.5920008 0.12286062 -0.29395846
-0.06624208 -0.30059472 -0.08296993 0.4773228 0.23732053 0.05475144 0.09576922 0.36036083
-0.29568183 -0.18015213 0.17017624 -0.12803756 -0.13146472 -0.037493575 0.13983035 -0.27202624
-0.06288644 -0.3864373 -0.48227707 0.17609785 0.35020038 0.024055127 -0.17223941 0.20577867
-0.85105926 -0.50938684 -0.025338057 -0.14487536 -0.4331145 0.40159115 0.0793217 0.22600947
-0.8040595 -0.30170703 -0.034182955 -0.013809516 -0.19117266 0.62390053 0.10932449 0.083463244
-0.08870231 -0.16397052 0.021961708 0.17799138 0.3938229 0.0068907556 0.022845238 0.029180499
0.08283171 0.26041105 -0.11468009 0.124996066 -0.19684924 0.020799857 -0.13576154 -0.14341532
0.23939958 0.13968217 0.3902263 0.0962308 -0.5299083 0.18314305 0.13290094 -0.2677981
00000000: f20b 0e3f 3ff6 58bd aff5 8abd acdb 0e3e
00000010: 2e1b c43e 9cef 2abc cb58 ba3d a925 72bd
00000020: d184 bc3e 4637 50be 69fc 88bd adbe 2e3e
00000030: 8d86 483e 1c96 e33e b9ff b53b 2762 05bd
00000040: 996c cf3e b8aa 16be 3748 ce3d 8d79 7b3e
00000050: defc d03e 7a5e 723e f5e6 f4bd d5a0 243e
00000060: 4fdf 433e ceeb 15bd d919 23be 9419 86bd
00000070: 89bb 33be 6a07 843e 7ee5 3f3d 7e5b 90bd
00000080: b064 b43d a275 5fbd ae8d 18be e303 a53d
00000090: ac90 0ebf cd86 713e 465e 493d b2c4 443e
000000a0: 3d31 d1bd 0eba cebc 2b8b 47be 27d7 57be
000000b0: f5f1 b4be 2327 113f a339 82be bb7c 3bbe
000000c0: 4b51 213f f6ee 2b3e 11de 62be 5ae9 1e3e
000000d0: a66d 4f3f 04d0 83be 1425 f43d 4569 ed3d
000000e0: f0a0 a93e 739b c83d 7012 453e 4376 b8bd
000000f0: 8fa5 1d3f 9e48 fabc 74c0 30be a8e9 76bd
00000100: b486 023e e5d2 c33d 73ef e1bd baa0 94bd
00000110: e0d1 0a3f 3300 423e 4990 a6bd e99a 4abc
00000120: a695 443e 41d2 593c a534 e33d 0e46 79be
00000130: a11a 653f e868 be3d ecaf 34bd 23b8 e4bd
00000140: 9be5 bd3d a4d5 23be afc4 033e dfd4 3c3e
00000150: f513 bc3f dd67 cdbc e927 a5bd 9b94 b6bd
00000160: 74c0 26be ce82 68be 8de8 2bbd 1403 53be
00000170: 1ab0 9d3f a6de 8f3e 4e3c ee3c 4b3a 8f3d
00000180: b6de 0bbf f173 97be b10a e4bd 62c7 993c
00000190: 5622 0eba 4f5b 063f 4b20 afbd 4615 033d
000001a0: f1fc a0be 1eed bdbd 5ba0 793e cf5d c43e
000001b0: 8e96 1dbe 58ee cf3e 4bb5 303d e51b 873e
000001c0: 424c e5be 8219 babe a4e0 0e3e 352e 8f3e
000001d0: 7a7f 16be 0af8 f83e 577a d73d d9e2 9b3d
000001e0: 100f d7bb de31 8fbd de94 843e 0cdd de3e
000001f0: d708 b63d 966b 113e 380f 973e bba6 303f
00000200: 424c 9ebc 68dc 82bd 0200 213e 00d1 cd3e
00000210: 19a4 703d 244e c63e 98f4 af3c 2cfa 853e
00000220: 4985 87bb c05b db3e 8781 a83d a55e 41be
00000230: e0d8 393e c323 5d3d 096f 533e 3fd0 83bd
00000240: b257 8f39 45eb b83e b009 eebd 5a05 5abe
00000250: 358f 433e 2a7b 89be 7b98 7cbe b0b1 063e
00000260: de7c 44be 3f42 133f 2df8 213d 1f92 163e
00000270: 954d 013f 6840 c6bd 68c3 883d 45e3 923e
00000280: e46f 61be 298e ca3e abd9 5cbe f393 0f3e
00000290: 91ba 073f 1116 bdbb be98 bdbd c740 78be
000002a0: bcb2 f43d fbe9 37be c374 e2bd 0b24 163e
000002b0: e586 8d3e 2859 0b3f 9f55 c93d 0c91 813d
000002c0: a5cb 55be 3e6b 193c e3d9 363b a6fa 883e
000002d0: addd db3e ad67 403f 793e e1bc 0bbb 0fbb
000002e0: a292 d73d 9b46 cbbe 29aa 883d e681 82be
000002f0: d6dc f13e 5d8d 173f 599e fb3d b981 96be
00000300: eda9 87bd 8de7 99be 23ec a9bd a763 f43e
00000310: 2704 733e 0c43 603d a722 c43d 3781 b83e
00000320: 9c63 97be cd79 38be ae42 2e3e 471c 03be
00000330: b09e 06be dd92 19bd b02f 0f3e 0647 8bbe
00000340: 9bca 80bd 1cdb c5be 05ed f6be ff52 343e
00000350: 774d b33e 420f c53c 875f 30be a5b7 523e
00000360: 05df 59bf 2d67 02bf c291 cfbc 355a 14be
00000370: 2fc1 ddbe 5b9d cd3e 6a73 a23d 076f 673e
00000380: d8d6 4dbf 5879 9abe 6d03 0cbd 4f41 62bc
00000390: c4c2 43be f2b7 1f3f 85e5 df3d c7ee aa3d
000003a0: 8fa9 b5bd e3e7 27be 0ae9 b33c 5f43 363e
000003b0: 28a3 c93e d9cb e13b f025 bb3c f10b ef3c
000003c0: aca3 a93d 9954 853e 65dd eabd f0fd ff3d
000003d0: d992 49be 7664 aa3c 1305 0bbe 77db 12be
000003e0: 2a25 753e d808 0f3e becb c73e a714 c53d
000003f0: 12a8 07bf da89 3b3e 2f17 083e d51c 89be

linear1.bias f4 [48]
-0.40201616 0.025131678 -0.06362834 -0.18914172 0.27287924 -0.077012256 0.10316798 0.33853105
0.19295369 0.25693342 0.0984806 0.22952105 0.35163605 0.08858243 0.058567166 0.16887072
-0.048179008 -0.08719731 0.20369793 -0.12914291 0.3494521 -0.07562693 0.033500362 0.03197688
-0.05767029 -0.05944697 0.086082734 0.35106447 -0.22706737 -0.16179185 -0.14387727 -0.037926424
0.05808709 -0.06301258 -0.033641268 0.066964194 0.040460512 0.14731576 0.24052283 -0.059425935
0.29228556 0.1290357 -0.28527194 0.03683476 0.08064073 0.012611865 -0.021897636 -0.21910003
00000000: 10d5 cdbe f3e0 cd3c 934f 82bd 5eae 41be
00000010: d4b6 8b3e 9ab8 9dbd bc49 d33d f153 ad3e
00000020: a795 453e c78c 833e 32b0 c93d 9107 6b3e
00000030: a409 b43e b46a b53d 20e4 6f3d 72ec 2c3e
00000040: 5a57 45bd 8194 b2bd 3196 503e 0a3e 04be
00000050: 63eb b23e 4be2 9abd ad37 093d 30fa 023d
00000060: af37 6cbd aa7e 73bd 254c b03d b9be b33e
00000070: 5984 68be c3ac 25be 9054 13be bd58 1bbd
00000080: baec 6d3d bd0c 81bd 6dcb 09bd 8624 893d
00000090: ecb9 253d f1d9 163e 9e4b 763e 9c68 73bd
000000a0: 74a6 953e ef21 043e 2a0f 92be 0ce0 163d
000000b0: f826 a53d ffa1 4e3c ac62 b3bc c25b 60be

linear2.weight f4 [48, 48]
-0.004152139 -0.2815732 0.09904142 1.5420915 0.14980085 -0.32877338 0.24213693 -0.5162124
-0.43819958 -0.6803793 0.026848784 0.12772256 0.18714528 0.06537946 -0.23292288 -0.1637579
0.42116603 0.61499566 0.3705514 0.45283774 -0.67775077 -0.13416566 -0.13424852 -0.5597029
-0.29453367 -0.4051405 0.4656035 0.028691374 -0.2801429 -0.66278344 -0.73344713 0.16819403
-0.2839198 0.6963849 0.30245727 0.9333097 -0.07983847 -0.10082594 -0.32087 0.544294
0.038613062 -0.010794307 -0.6187607 -0.2471339 0.13989471 0.2113398 0.80876696 0.9293367
-0.27736336 -0.38348728 -0.1282856 0.5901558 -0.34008452 -0.056974452 0.13854982 -0.5023048
-0.15894176 -0.033764016 -0.31721655 0.5716353 0.4856836 0.18546061 -0.3792425 -0.32955393
0.13775422 0.5084811 0.2781901 -0.042502098 -0.18842244 -0.10633387 -0.10589064 0.15504198
-0.22125417 0.9490942 0.34360042 0.2090733 -0.42273208 0.027669618 -0.30790642 0.50441647
-0.2693421 0.57448006 0.0934927 0.6913007 -0.28408304 0.35105866 -0.11716907 0.6574225
-0.35369492 -0.17759171 -0.37303266 -0.14925474 0.28605324 0.36351642 0.8865183 -0.003335106
-0.46318546 -0.24137314 -0.6878257 -0.8907049 -0.28347987 -0.11515631 -0.10169835 -0.21371716
0.24118616 0.605496 -0.27028245 0.5850541 0.52258885 0.33079693 0.22762017 -0.3697269
-0.36788127 -0.43794152 -0.2290565 -0.16078998 0.38080922 0.22387612 0.044645913 0.38817286
0.12100876 1.7736715 -0.65617836 0.3657298 0.2973067 0.24404676 0.6186835 0.20352621
-0.36529058 -0.48371026 0.0015904962 -0.7883184 -0.37460873 0.33997968 0.28143546 -0.004363569
-0.69853073 0.019178541 -0.06352154 -0.22500224 0.28849876 0.06795777 0.013360528 -1.1390206
0.011586554 0.15769365 0.08535406 -1.2743706 -0.1857085 0.33816135 -0.4257784 0.4256617
0.58587706 0.41150272 -0.14108542 0.06204722 0.018909084 -0.03208934 0.3722151 0.044128858
-0.261386 -0.51550364 -0.29249153 -0.4260417 0.6230602 0.27004442 0.0272963 0.45848364
0.11739372 0.61468166 -0.35826588 0.06707934 0.32901287 0.48191187 0.53060156 -0.14566936
0.19158556 -0.41125178 -0.38735768 -0.57247555 -0.0072606057 0.21034867 0.5347796 -0.4468684
-0.2767953 -0.10805845 0.51173484 -0.035137568 -0.28356284 -0.16171831 -0.5816349 -0.8523515
-0.23451786 -0.49224424 -0.35892195 0.17641807 -0.25434116 -0.020481652 0.03320157 -0.4198136
-0.11694686 0.22347267 -0.3660379 0.65902317 0.55524784 0.3522497 -0.1698391 -0.47983128
-0.0009117151 0.06900758 -0.011184046 -0.10772154 -0.13588528 -0.119858235 -0.013419691 0.38603282
-0.25890735 1.2600281 0.10444012 0.24383412 -0.18279725 0.17727396 -0.057455856 0.56964535
-0.20061028 0.20537993 0.062357627 0.26301774 -0.3171306 0.38974312 0.16713126 0.48764676
-0.56423116 -0.21139443 -0.18066528 -0.319896 0.17879853 0.42581397 0.8497876 -0.6557565
0.11718644 0.22691657 0.21573526 -0.47740546 0.085812554 0.021141019 -0.05757694 0.47119558
0.087031364 0.19159189 -0.21696612 -0.3443941 -0.24445671 -0.19176121 0.28749493 0.01613127
00000000: ab0e 88bb 5d2a 90be 3ad6 ca3d 4163 c53f
00000010: 6565 193e fc54 a8be bef2 773e 7f26 04bf
00000020: b25b e0be 562d 2ebf fbf1 db3c b4c9 023e
00000030: 03a3 3f3e abe5 853d 5683 6ebe 27b0 27be
00000040: 13a3 d73e 5b70 1d3f eab8 bd3e 59da e73e
00000050: 1381 2dbf b962 09be 7278 09be b048 0fbf
00000060: 1ecd 96be 936e cfbe 9563 ee3e 2c0a eb3c
00000070: e46e 8fbe 2dac 29bf 31c3 3bbf 0e3b 2c3e
00000080: f05d 91be 4846 323f aedb 9a3e 62ed 6e3f
00000090: 5a82 a3bd d57d cebd 1349 a4be da56 0b3f
000000a0: bb28 1e3d 9bda 30bc 1a67 1ebf ab10 7dbe
000000b0: 8f40 0f3e 7669 583e 5a0b 4f3f 03e9 6d3f
000000c0: 9202 8ebe 7258 c4be 4d5d 03be 7314 173f
000000d0: 8f1f aebe 0b5e 69bd 01e0 0d3e 0c97 00bf
000000e0: a1c1 22be 234c 0abd 356a a2be b156 123f
000000f0: 85ab f83e 63e9 3d3e 132c c2be 4bbb a8be
00000100: 710f 0d3e d12b 023f ef6e 8e3e ae16 2ebd
00000110: d0f1 40be 92c5 d9bd 31dd d8bd 53c3 1e3e
00000120: 7490 62be d6f7 723f 65ec af3e 5017 563e
00000130: 5770 d8be 65ab e23c e9a5 9dbe 7021 013f
00000140: 35e7 89be 2011 133f 1a79 bf3d 15f9 303f
00000150: 5573 91be f6bd b33e 56f6 efbd d74c 283f
00000160: 8017 b5be 9ada 35be 23fe bebe 3cd6 18be
00000170: 9275 923e d31e ba3e ddf2 623f cb91 5abb
00000180: a526 edbe 852a 77be 5815 30bf 3c05 64bf
00000190: 4624 91be 12d7 ebbd 3947 d0bd acd8 5abe
000001a0: 81f9 763e c901 1b3f 7662 8abe 1bc6 153f
000001b0: 62c8 053f 375e a93e 4315 693e d84c bdbe
000001c0: ef5a bcbe df39 e0be ca8d 6abe 21a6 24be
000001d0: 6df9 c23e c83f 653e a2de 363d 98be c63e
000001e0: 71d3 f73d ab07 e33f 4efb 27bf f040 bb3e
000001f0: 9538 983e 65e7 793e 0b62 1e3f 2d69 503e
00000200: 5e07 bbbe dfa8 f7be 3278 d03a 3ccf 49bf
00000210: b7cc bfbe d111 ae3e 4f18 903e 45fc 8ebb
00000220: e9d2 32bf 511c 9d3c 9517 82bd fd66 66be
00000230: 1cb6 933e 712d 8b3d 1ee6 5a3c 6dcb 91bf
00000240: 88d5 3d3c 727a 213e 1cce ae3d 931e a3bf
00000250: 5e2a 3ebe 7c23 ad3e a0ff d9be 55f0 d93e
00000260: 0afc 153f 7cb0 d23e b278 10be 3a25 7e3d
00000270: 39e7 9a3c 1d70 03bd fa92 be3e 76c0 343d
00000280: 63d4 85be 0cf8 03bf 73c1 95be 2322 dabe
00000290: e080 1f3f 4343 8a3e 7d9c df3c 5ebe ea3e
000002a0: 1e6c f03d c75b 1d3f a06e b7be e560 893d
000002b0: 6074 a83e 27bd f63e 81d5 073f 592a 15be
000002c0: 012f 443e 988f d2be bf53 c6be c28d 12bf
000002d0: 60ea edbb a465 573e 51e7 083f efcb e4be
000002e0: 1db8 8dbe c04d ddbd 0e01 033f 69ec 0fbd
000002f0: 262f 91be 7c99 25be 06e6 14bf b533 5abf
00000300: 7325 70be 7007 fcbe 9ec4 b7be f0a6 343e
00000310: 0139 82be 23c9 a7bc 5ffe 073d cff1 d6be
00000320: d681 efbd 05d6 643e 5269 bbbe beb5 283f
00000330: b924 0e3f 135a b43e 4dea 2dbe 72ac f5be
00000340: 2a00 6fba d953 8d3d 4a3d 37bc 1c9d dcbd
00000350: 8325 0bbe 3c78 f5bd 43de 5bbc 18a6 c53e
00000360: 818f 84be 9a48 a13f b4e4 d53d a7af 793e
00000370: 342f 3bbe 4e87 353e d556 6bbd 47d4 113f
00000380: c86c 4dbe 1e4f 523e b66a 7f3d 43aa 863e
00000390: f15e a2be 698c c73e 7524 2b3e d6ac f93e
000003a0: 7471 10bf c877 58be 5200 39be 69c9 a3be
000003b0: f616 373e 4a04 da3e ae8b 593f a8df 27bf
000003c0: 72ff ef3d d15c 683e b4e9 5c3e 7d6e f4be
000003d0: 7ebe af3d ee2f ad3c ccd5 6bbd 8c40 f13e
000003e0: 803d b23d aa30 443e 5e2c 5ebe 6c54 b0be
000003f0: dc52 7abe 0d5d 44be 8932 933e ba25 843c

linear2.bias f4 [48]
0.14168808 -0.266815 -0.436399 -0.116967574 -0.08705731 -0.013882368 -0.21143226 0.13003695
-0.03682146 -0.0026406306 -0.086345926 0.0056691873 0.008030833 -0.23266456 -0.25940382 -0.022599388
0.07626901 0.16014524 -0.109642185 -0.03932068 -0.0076526017 -0.21259925 -0.16398144 -0.0026882219
0.0067829 0.056218572 -0.11863627 -0.20012023 -0.14944981 -0.24312922 -0.087516956 0.15128769
-0.13790467 -0.11845651 -0.23325709 -0.20699053 -0.12584358 -0.12700503 -0.10438257 0.012410962
-0.12661736 0.07823461 -0.05258447 -0.19883616 -0.018797638 0.098682374 -0.12814255 -0.20000933
00000000: ae16 113e fa9b 88be b16f dfbe b28c efbd
00000010: 1a4b b2bd df72 63bc b381 58be 6828 053e
00000020: 19d2 16bd 6e0e 2dbb 22d6 b0bd 97c4 b93b
00000030: c193 033c 9e3f 6ebe 94d0 84be 5a22 b9bc
00000040: ed32 9c3d 1dfd 233e 158c e0bd b90e 21bd
00000050: adc2 fabb 9eb3 59be c0ea 27be e12c 30bb
00000060: 1743 de3b 7245 663d 93f7 f2bd 51ec 4cbe
00000070: 5f09 19be def6 78be 173c b3bd 29eb 1a3e
00000080: e236 0dbe 5499 f2bd f2da 6ebe 53f5 53be
00000090: 24dd 00be 9b0d 02be 87c6 d5bd 5957 4b3c
000000a0: fba7 01be 7839 a03d d062 57bd b59b 4bbe
000000b0: 81fd 99bc fc19 ca3d cd37 03be 3fcf 4cbe

linear3.weight f4 [32, 48]
0.09690258 0.66416526 0.70335513 0.05841128 0.61257255 -0.27803767 0.38357216 -0.51434374
0.5089738 -0.19075178 0.55884 -0.22041333 0.4419005 -0.32013956 -0.05551073 -0.57241106
0.47688818 -0.78842777 -0.2666911 0.0066200914 0.69374675 0.7200342 -0.32588688 0.6727513
-0.28242654 0.36266088 0.8088499 -0.50558394 0.7413402 0.6374081 -0.02111864 -0.56111985
-0.14016388 -0.15274292 0.63380724 0.41854104 -0.1774619 0.55089116 0.5490055 -0.4983625
-0.3590121 0.42294252 0.57841456 -0.057728283 -0.0906283 0.3673625 0.36016214 -0.041610025
0.043008637 0.54376453 0.6091584 0.028268073 0.65133464 -0.26988843 0.51481223 -0.27306363
0.75879794 -0.0895785 0.5432914 -0.21758436 0.3797205 -0.27241644 -0.26658493 -0.5822927
0.33099595 -0.706444 -0.3140816 -0.092967734 0.68446 0.57576334 -0.26002797 0.66099524
-0.4322236 0.5294106 0.6721526 -0.54020983 0.63473785 0.40617228 0.13409975 -0.5324334
-0.2413935 -0.26320717 0.74283123 0.32703802 -0.012668669 0.39106682 0.35066095 -0.46019277
-0.42731258 0.5262189 0.5449342 -0.08340111 -0.020745315 0.3850468 0.5033277 -0.27417296
-0.31086382 -0.42328298 -0.13605724 0.10421476 -0.35062936 0.23511055 -0.1382234 0.43258554
-0.60460716 0.2658212 -0.37456915 0.41334015 -0.3211542 0.5272726 0.3712617 0.4290516
-0.44843113 0.37565678 0.44521612 0.088663325 -0.47452402 -0.3315581 0.44651353 -0.48550293
0.7117785 -0.4482334 -0.31633055 0.26774248 -0.3698361 -0.35513863 0.19833428 0.33191493
0.43301898 0.33692926 -0.13374098 -0.26696798 0.19846548 -0.3605443 -0.31980056 0.4734861
0.74117976 -0.426381 -0.37923583 0.21657425 0.26071656 -0.22473408 -0.3272991 0.5463256
0.24677944 0.62698823 0.69602525 -0.0539121 0.66906375 -0.109657295 0.5201763 -0.35348037
0.55157214 -0.31856564 0.7075881 -0.4057963 0.38065985 -0.3574295 -0.2437942 -0.6921939
0.23266914 -0.7890213 -0.28746092 0.03062458 0.5495951 0.5562119 -0.15050957 0.4985115
-0.27999312 0.51025563 0.61389613 -0.48592487 0.4644606 0.5418164 0.015472012 -0.54733664
-0.39231044 -0.1955665 0.4899378 0.49866104 -0.18927225 0.42038712 0.5454916 -0.5690272
-0.40628934 0.53704965 0.6650673 -0.09401386 -0.0043015983 0.28016666 0.35421416 -0.109098874
0.92088526 0.1340811 -0.7421589 -0.8346158 -0.23998374 -0.27765757 0.20033805 0.29769132
0.2999474 -0.030292774 0.4216522 -0.28625768 0.5788969 -0.5883362 -0.1306902 0.3143852
0.8758441 0.64757806 -0.13584866 -0.2795057 0.15302648 -0.13610801 -0.53279316 0.31781793
-0.6945154 0.22732545 -0.205984 -0.1452439 0.011179042 0.16229954 -0.6040037 0.44684854
-0.7344904 -0.0426932 -0.5126188 0.54717493 -0.13615437 0.17422038 -0.032161392 0.049015217
-0.45531535 0.52426326 -0.23788464 -0.49371144 -0.3290051 0.60645664 0.18326202 -0.54828453
1.1231172 -0.073601335 -0.96082073 -0.8181638 -0.27574542 -0.31212908 0.42103636 0.34665564
-0.04826539 -0.1446349 0.43947917 0.0334126 0.65623033 -0.555715 -0.30093062 0.820111
00000000: dc74 c63d bc06 2a3f 150f 343f ab40 6f3d
00000010: 8ed1 1c3f f45a 8ebe 9263 c43e 08ac 03bf
00000020: 1b4c 023f 6f54 43be 2310 0f3f 08b4 61be
00000030: c840 e23e 55e9 a3be 385f 63bd 8889 12bf
00000040: b02a f43e 67d6 49bf bc8b 88be 5aed d83b
00000050: 6399 313f 2954 383f a5da a6be 6e39 2c3f
00000060: 369a 90be b0ae b93e c910 4f3f f36d 01bf
00000070: 79c8 3d3f 2d2d 233f 0001 adbc 8da5 0fbf
00000080: 1f87 0fbe a468 1cbe 3141 223f 034b d63e
00000090: 93b8 35be 3407 0d3f a08b 0c3f 5f29 ffbe
000000a0: 6fd0 b7be ec8b d83e fa12 143f 7e74 6cbd
000000b0: 559b b9bd f016 bc3e 2c67 b83e 466f 2abd
000000c0: d329 303d 2734 0b3f cef1 1b3f 7292 e73c
000000d0: debd 263f d12e 8abe bcca 033f ffce 8bbe
000000e0: 9540 423f ef74 b7bd 2515 0b3f 6fce 5ebe
000000f0: ba6a c23e 2b7a 8bbe d27d 88be 2211 15bf
00000100: 4d78 a93e 84d9 34bf 4ecf a0be de65 bebd
00000110: c538 2f3f 3a65 133f 6322 85be fc36 293f
00000120: 694c ddbe 7487 073f 3112 2c3f 314b 0abf
00000130: 2e7e 223f d0f5 cf3e 7251 093e 8e4d 08bf
00000140: dc2f 77be 17c3 86be 302a 3e3f 8771 a73e
00000150: 4090 4fbc e939 c83e d589 b33e 639e ebbe
00000160: b7c8 dabe 48b6 063f cf80 0b3f 33ce aabd
00000170: 14f2 a9bc db24 c53e 16da 003f 6660 8cbe
00000180: 8b29 9fbe 8cb8 d8be 9752 0bbe 8c6e d53d
00000190: b185 b3be d2c0 703e 6f8a 0dbe da7b dd3e
000001a0: 89c7 1abf b719 883e 87c7 bfbe 52a1 d33e
000001b0: 536e a4be 56fb 063f 0316 be3e a7ac db3e
000001c0: c498 e5be 1656 c03e 5ef3 e33e 1e95 b53d
000001d0: d0f4 f2be fcc1 a9be 6c9d e43e d793 f8be
000001e0: 1e37 363f d97e e5be 14f6 a1be 8b15 893e
000001f0: 285b bdbe bbd4 b5be 2418 4b3e c1f0 a93e
00000200: aab4 dd3e fe81 ac3e 65f3 08be 07b0 88be
00000210: 893a 4b3e 4399 b8be e6bc a3be c56c f23e
00000220: f5bd 3d3f 9c4e dabe 332b c2be a4c5 5d3e
00000230: a47c 853e b120 66be bf93 a7be ffdb 0b3f
00000240: c0b3 7c3e 4d82 203f b62e 323f efd2 5cbd
00000250: c347 2b3f 0194 e0bd 462a 053f 61fb b4be
00000260: d533 0d3f 091b a3be 7e24 353f 88c4 cfbe
00000270: d9e5 c23e 0001 b7be 30a5 79be 9f33 31bf
00000280: d240 6e3e 4dfd 49bf 142e 93be 66e0 fa3c
00000290: 44b2 0c3f e763 0e3f 2e1f 1abe e63c ff3e
000002a0: 425b 8fbe 1da0 023f 4c28 1d3f 25cb f8be
000002b0: c8cd ed3e 7bb4 0a3f 527e 7d3c 411e 0cbf
000002c0: eadc c8be 9642 48be 21d9 fa3e 8050 ff3e
000002d0: 96d0 41be fb3c d73e 56a5 0b3f c4ab 11bf
000002e0: 2805 d0be 167c 093f da41 2a3f 578a c0bd
000002f0: 6cf4 8cbb 0172 8f3e 8f5b b53e 3b6f dfbd
00000300: 23bf 6b3f 8e4c 093e 20fe 3dbf 62a9 55bf
00000310: 4cbe 75be 2229 8ebe 6b25 4d3e ff6a 983e
00000320: b592 993e 8d28 f8bc cce2 d73e 5e90 92be
00000330: 9632 143f 349d 16bf a7d3 05be 19f7 a03e
00000340: 5237 603f adc7 253f e91b 0bbe 5f1b 8fbe
00000350: f9b2 1c3e e65f 0bbe 2265 08bf 08b9 a23e
00000360: c3cb 31bf 01c8 683e 78ed 52be d1ba 14be
00000370: 4d28 373c da31 263e fd9f 1abf 55c9 e43e
00000380: 9007 3cbf 11df 2ebd fc3a 03bf a813 0c3f
00000390: 0d6c 0bbe d466 323e aabb 03bd 2ec4 483d
000003a0: 181f e9be 1e36 063f 0898 73be bfc7 fcbe
000003b0: 5b73 a8be be40 1b3f 0aa9 3b3e 605c 0cbf
000003c0: 4ec2 8f3f 4cbc 96bd 59f8 75bf 2f73 51bf
000003d0: 812e 8dbe 62cf 9fbe 1492 d73e d97c b13e
000003e0: eeb1 45bd 2c1b 14be 6a03 e13e a7db 083d
000003f0: b6fe 273f 5743 0ebf 9413 9abe cbf2 513f

linear3.bias f4 [32]
-0.16937433 -0.110089846 0.14688802 -0.021219894 -0.09012604 -0.024987293 -0.13281512 0.13316815
-0.08633885 -0.115306504 -0.06705943 0.002400682 0.2785949 -0.006942249 -0.10475933 0.06916595
-0.29460624 -0.10696667 -0.17208618 0.059817944 0.012956106 0.009365091 -0.26221627 0.1301084
0.06704004 0.018275773 -0.114593744 -0.14274156 0.05813777 -0.07004281 0.083563685 0.09412657
00000000: 7770 2dbe c976 e1bd d069 163e 58d5 adbc
00000010: 0094 b8bd 27b2 ccbc b000 08be 3b5d 083e
00000020: 6cd2 b0bd d125 ecbd 7456 89bd c354 1d3b
00000030: fea3 8e3e ce7b e3bb 0f8c d6bd e1a6 8d3d
00000040: a1d6 96be 5711 dbbd 5c37 30be a903 753d
00000050: d945 543c 0a70 193c 3641 86be 233b 053e
00000060: 4a4c 893d 13b7 953c 20b0 eabd d82a 12be
00000070: df21 6e3d 9b72 8fbd 7023 ab3d 6ec5 c03d

linear4.weight f4 [2, 32]
0.865274 0.8856786 -1.1497082 0.8551922 0.21629938 -0.3559604 0.15198572 -1.2794878
1.1749476 0.9993713 0.5508082 -0.56475294 -0.9892514 -0.37325197 0.055826865 -1.0734302
0.6896898 0.85132694 0.24021478 -1.0525012 -0.09001752 0.97305846 0.47970232 -1.3629398
0.34777656 0.26816654 0.7358454 -0.26599213 -0.7871358 0.6995903 0.12824152 0.29436418
0.20212233 0.13930933 0.85321903 0.18725613 -1.1839693 -1.7243409 -1.3860972 0.89256585
0.60363597 0.15316477 1.3401065 -0.9505205 1.0098534 -1.6430552 -1.5953178 0.97968936
-0.2573938 0.35270378 -1.1951962 0.8631154 -1.5434229 0.34628603 -0.851458 1.0098416
1.3470844 -1.2485284 -0.2294828 -1.9320534 1.7302761 0.66640043 1.6792799 1.5324336
00000000: 9982 5d3f d5bb 623f a329 93bf e0ed 5a3f
00000010: 967d 5d3e 7140 b6be 25a2 1b3e 42c6 a3bf
00000020: af64 963f ccd6 7f3f c401 0d3f a693 10bf
00000030: 943f 7dbf e21a bfbe b6aa 643d 2966 89bf
00000040: 838f 303f 90f0 593f ddfa 753e 5cb8 86bf
00000050: 1b5b b8bd 5c1a 793f 8b9b f53e d074 aebf
00000060: c50f b23e 204d 893e 5d60 3c3f 1f30 88be
00000070: bb81 49bf 5a18 333f bf51 033e e7b6 963e
00000080: 28f9 4e3e 1ba7 0e3e 906c 5a3f 12c0 3f3e
00000090: 4e8c 97bf 34b7 dcbf a26b b1bf 327f 643f
000000a0: e387 1a3f 3ad7 1c3e 9c88 ab3f 5055 73bf
000000b0: e042 813f a24f d2bf 6033 ccbf eccc 7a3f
000000c0: 1fc9 83be 9795 b43e 30fc 98bf 21f5 5c3f
000000d0: e28e c5bf 674c b13e 27f9 59bf 7d42 813f
000000e0: 436d ac3f c7cf 9fbf 8afd 6abe 874d f7bf
000000f0: b079 dd3f 3899 2a3f a5f2 d63f c926 c43f

linear4.bias f4 [2]
-0.24072325 0.15543064
00000000: 2880 76be 3629 1f3e
